saved_models/Deeper_Thinner_model.pt (torch, 154778 bytes, 72 tensors)

token_embedding_table.weight f4 [15, 24]
00000000: f82b fabc dd0c 9abd a35c aa3d 9350 833d
00000010: 2390 03be a763 2b3d b84f 33bc 4ec3 ddbd
00000020: 405d 533e 0644 3abe 8384 0cbc 7162 52be
00000030: 86ec d73d 0345 cb3d 7220 1ebc eaee 08be
00000040: b0d0 e1bc 785e c7bc a61b 1b3e 0120 993d
00000050: 128c 523c b078 843d e9be 19bb 8607 e6bb
00000060: 6b7b 0dbe c3e5 a73d 8f02 db3d fe6a bb3d
00000070: a9a3 5fbc 5225 f63c 7fae c5bd fae5 b53d
00000080: 1ba2 403d 5650 59bc bc3b f03d 89a7 04bc
00000090: db6a 6c3e 9bae 88bd 7c42 0abe afa6 1fbe
000000a0: cd2e 6dbd 072b 3b3d 2be9 c8bd 19a0 293e
000000b0: 4dce f5bd 8261 19be 70c7 cebd 8e11 0c3e
000000c0: f011 493d 2d2b 373e 88e0 583d a099 803c
000000d0: bc2b c6bc d215 02bc 486b 9abd 98e7 c63d
000000e0: 00e5 bebd 8a03 2d3d b086 54bd bd21 95bd
000000f0: ba92 9bbd a429 4a3d 364a a13d f705 cfbc
00000100: 1b2c 8a3c 11ab a23c 29b0 883d a511 67be
00000110: e138 4fbd b543 003b f685 243e a00b 2fbe
00000120: 4a42 843e 07a2 ba3c 8478 443d f598 c739
00000130: 7363 4e3e 67ca c3bc f53c debd 932b af3c
00000140: e169 bcba 7714 c33c b6ea b7bd 2f3e 373d
00000150: 553b e03c cf29 b63b c6eb dd3d fbe1 76bd
00000160: b474 8e39 447c 1cbd f436 6d3d 1c48 b3bd
00000170: 7551 c6bc fdc4 db3c 989b 20bc e522 3fbe
00000180: 16af ca3d 1503 f439 4295 7bbd 013c 67bd
00000190: fb9e 273c 62bd 62be d8ec 3b3e 9c6d 073e
000001a0: d574 febc 3b4c f1bc 7071 1dbd af09 ad3d
000001b0: 1858 24be da88 ee3c 70aa 82bd cbf9 b1bc
000001c0: 5129 bebd aac3 043e f02e 6b3c 1855 b9ba
000001d0: c27f b9bd bf8f 973b a76f b83d 3b4c 4fbd
000001e0: f906 d93d 86a5 0a3d c4a1 e33d f7f7 16bd
000001f0: 17cc 9b3c 63d8 6cbe e9b3 0c3e a774 0f3d
00000200: cf88 b0bd daa2 65bd 0de7 5abd f2ac b9bd
00000210: 07be 42be 69dc 463c a8da 7a3d 7235 3a3d
00000220: 10cb 773c f78f 3f3c eee3 14be f18b 3abd
00000230: a024 a9ba fab0 c43b b30c 8e3d 6e2f 42bd
00000240: cb69 b13d 3662 adbc bbc1 603e 80f9 7a3c
00000250: abdb 923c b0f3 21bd 9b98 5dbd 40ff 9abd
00000260: 2bc7 fdbd 1b75 cb3c 6305 90bd ad61 0dbd
00000270: 4611 75bd 3839 15bd b40d d13d 2d3c 2b3e
00000280: 4708 c33d 0b91 0ebe 11b5 14be 653d 08bc
00000290: 107c d73c 4fbe 20ba d399 663d 1c97 03bd
000002a0: ad91 bebc f598 9fbd d23c cfbd 18ea ec3c
000002b0: 3385 21be d910 e0bc 096a aa3d e95d 86bd
000002c0: 1ecf 16bd 8e0e cfb9 41b5 323b a5e1 a93d
000002d0: 6cb6 34be 1256 10bd e284 01be ad45 313e
000002e0: b0c0 e13d 4575 063c 1004 82bd 1b46 6ebc
000002f0: 6fe1 133d 8235 8d3c 9351 173e fdf4 313e
00000300: 50f3 04be 20e7 ad3d 3eed 4bbd 1dd0 773c
00000310: cf52 49be 8848 91bb 4453 1a3c 540d 0a3d
00000320: af15 38bd 4590 2e3a 610c b8bb 306a d4bd
00000330: 3aae 21be 6274 573d 1fb7 2bbd e7a0 ce3d
00000340: ebb7 1a3d f90c 61bc b52f ae3c bdef fdbd
00000350: f0c5 43bc 52cd 37bc 55d4 873e fc05 30bc
00000360: 9c71 ed3d 81c9 bdbc e284 cebd 67e5 e83c
00000370: 9c2b c63d 7250 40bc 4922 1a3e 7c6f 0fbe
00000380: c406 9b3d b7da acbc 950d 06bd 2dd3 3bbe
00000390: 038d 78bc 91c0 bd3c 03a3 4b3c 92e1 babc
000003a0: a358 5bbd fcb4 54bd fc43 ef3d c5d5 f2bd
000003b0: b5da 233e 7cf0 19bd 3e1c dbbc 9ce9 a73d
000003c0: d89c c63d 8d25 cebd 08e9 47be 4328 9abc
000003d0: 54ea 99bc 9efd 443c 2a46 393c ae76 233d
000003e0: b7fc 063d 68a9 cb3b f4b0 edbc ddff 493e
000003f0: a669 e5bc 0764 0cbd 22ef 98bd ad9a b1bd
-0.030538544 -0.07521985 0.0831845 0.06411853 -0.12847953 0.041843083 -0.010944299 -0.10828267
0.20641041 -0.18190011 -0.008576515 -0.20545365 0.1054316 0.09925272 -0.00965129 -0.13372388
-0.02756533 -0.024337038 0.15147266 0.074768074 0.012850778 0.06468332 -0.0023459739 -0.00701994
-0.13816611 0.081981204 0.106938474 0.091512665 -0.013649859 0.030047093 -0.09652423 0.08881755
0.047029596 -0.0132637825 0.117301434 -0.008096584 0.23087637 -0.06673928 -0.13501924 -0.15590928
-0.05790596 0.04569533 -0.09810098 0.16564979 -0.120022394 -0.14978603 -0.100966334 0.13678572
0.049089372 0.17887564 0.052948505 0.015698254 -0.024190776 -0.007939773 -0.075399935 0.09712142
-0.09321022 0.042239703 -0.05188626 -0.07281826 -0.07596345 0.049356118 0.07875483 -0.025271399
0.016866734 0.019856961 0.06674225 -0.22565325 -0.050591353 0.0019571607 0.16066727 -0.17094278
0.25831825 0.022782339 0.047966495 0.000380702 0.20155124 -0.023900224 -0.108514704 0.021383082
-0.0014374816 0.02381347 -0.089803144 0.044737037 0.027372042 0.005559183 0.10835986 -0.060274106
0.000271713 -0.038204446 0.057913736 -0.08753988 -0.024208764 0.02682733 -0.009802721 -0.18665655
0.09896676 0.00046541603 -0.06142164 -0.05645371 0.010230775 -0.22142556 0.18352067 0.13225406
-0.03106157 -0.029455295 -0.03843826 0.084491126 -0.1604923 0.02911799 -0.063801646 -0.021725556
-0.09285224 0.12965265 0.0143544525 -0.001413974 -0.09057571 0.00462529 0.09005671 -0.05060981
0.10597033 0.03384926 0.11114839 -0.03685757 0.019018216 -0.2312942 0.13740505 0.035023358
-0.08619844 -0.05606351 -0.053443003 -0.0906619 -0.19017802 0.012137511 0.061243683 0.045461126
0.0151240975 0.011692039 -0.14540073 -0.045543615 -0.0012904592 0.0060025426 0.06936016 -0.047408514
0.086627565 -0.021164995 0.21948902 0.0153182745 0.017927011 -0.03953904 -0.054100614 -0.07568216
-0.12391504 0.024836114 -0.070322774 -0.03451698 -0.059830926 -0.03643152 0.10207692 0.16722174
0.09523063 -0.13922517 -0.14522196 -0.008315419 0.026304275 -0.0006131874 0.056299042 -0.03212653
-0.023262823 -0.07792846 -0.101190224 0.028920218 -0.15773468 -0.027351784 0.08321006 -0.06560881
-0.036818616 -0.0003949296 0.002726868 0.082949914 -0.17647713 -0.035238333 -0.12648347 0.17311735
0.1102308 0.00820667 -0.06348431 -0.014543082 0.036103662 0.017237429 0.14777212 0.17378612
-0.12983441 0.08491349 -0.0497868 0.015125302 -0.19660495 -0.004433695 0.009419266 0.033704117
-0.044942554 0.0006659071 -0.00561671 -0.10371816 -0.15789118 0.052601226 -0.041922685 0.100892834
0.037773054 -0.013736003 0.021262983 -0.12399242 -0.011949047 -0.011218386 0.26529184 -0.010743614
0.11593935 -0.023167374 -0.10083939 0.0284297 0.096762866 -0.01173793 0.15052141 -0.14007372
0.0756965 -0.021100385 -0.032727797 -0.18342276 -0.015170339 0.023163112 0.012429002 -0.022812638
-0.053551327 -0.051930413 0.11682889 -0.118571796 0.16001399 -0.03758286 -0.026746865 0.08198854
0.09697884 -0.10065756 -0.19522488 -0.018818026 -0.018788494 0.012023358 0.011308232 0.039908104
0.03295585 0.006215263 -0.029015042 0.1972651 -0.028004479 -0.03427508 -0.07467486 -0.0867208

position_embedding_table.weight f4 [32, 24]
00000000: 2dba 2a3d ac1e c5bb f57c 83bd 006a 813e
00000010: 354e bd3d 6e54 d73d 1cee ccba c764 ec3b
00000020: 9211 86bd afb9 84be 0dfc 193e 3717 a93c
00000030: 72cb 8bbd 30d0 86bd e78a da3d 00c3 e13d
00000040: 1e19 3cbe f68b dd3d 410c 60bd fae2 8c3c
00000050: ad69 12be a2aa 39be 1c5d 4a3d 6e02 e5bc
00000060: 12b7 d43c 6277 0e3d b400 b5bc 43fb 4d3e
00000070: 4125 363d 20d8 383d d3e1 9f3a fb6a 593d
00000080: 7fb9 0dbd 38a1 04be 5e5a f03d 1660 00bd
00000090: a3ee 27bd cf20 24be dfed 873d 28ee 7d3d
000000a0: 0830 c7bd 92f8 9c3d 1ecd 18bd 0945 8a3d
000000b0: 72c7 74bd 5473 f5bd 9276 093c 0731 f8bb
000000c0: ad1f b53c eff9 96bb 8841 04bd ed2a 2b3e
000000d0: 8670 3c3d f197 303d 5df3 323c 1312 3d3c
000000e0: e6cd d1bc 2af0 debd ae24 b03d 98d1 20bc
000000f0: e69d 37bd a05a 09be ebf2 d53c 604f 3e3d
00000100: 7e5e aabd 4c0d 693d 9918 0cbb fc25 963c
00000110: 58e2 d8bc fa45 e7bd 9c1b f83b 4d64 d0bc
00000120: 736a 423d a78f 0d3d 3222 78bc 5d31 133e
00000130: 554e 033d 5e94 ec3c 2ab4 35bc 5d59 f03c
00000140: 79bd 18bd 60b0 c8bd 3c5a b63d f6ee 19bc
00000150: bce9 6bbc 7887 fbbd aa65 843c f442 5e3d
00000160: b99c aebd e76a 953d 6c9e f0bc 705b a03c
00000170: 0529 a6bc 77d3 b2bd 609a abbb 47bd ea3b
00000180: 0f56 433d 89cc 933c fc2b 903b 117b e03d
00000190: bc60 423d ebfa e13c 78de bfba 2a7f c13b
000001a0: 3489 0cba c962 97bd 6025 673d 355a 18bc
000001b0: 65fb 17bd 7d84 e0bd 6efd 97bc 933d 443d
000001c0: 04ee 99bd 624f 7c3d 6cc3 73bc ba63 9339
000001d0: d3d3 9f3b 0771 b8bd 1162 1d3c 14f4 b3b8
000001e0: 618a a83d 8460 fe3c 85b1 97bc 975c ca3d
000001f0: f0b3 1a3c f6c9 b73c 750b 71bc 42b6 30bc
00000200: bae9 2abc 669c b6bd 0d65 183d 1202 983a
00000210: eaa5 18bd a0af d0bd e9c2 9bbc 5e83 163d
00000220: 1ee3 77bd dfac 783d d090 c5ba 992e b53c
00000230: a6a2 c33c ab45 87bd 68fb 633a 5e7d 56bc
00000240: 341b b83d 2c3c 953c 4e68 06bc 4617 9a3d
00000250: 3ee0 52bb d166 2d3a fff4 90bc 2465 2f3c
00000260: 14ea 6a3c f6d4 78bd 6663 7c3d 09c3 b8bc
00000270: dab1 36bc b0b1 9fbd 504d 14bd e3ca 443d
00000280: f75a 7fbd 8aaf 633d aef1 1cbc 71cb e3bc
00000290: 78f7 f03b a7fb 90bd 8e8e 7ebc 58a5 843c
000002a0: 7160 a33d 2489 a03b 808e 6c3c 92f9 a33d
000002b0: bbef a43c 89c9 bd3b 033d 83bc 0299 973c
000002c0: cf36 b7bc c488 15bd 8b12 e03c 4a53 41bb
000002d0: 63b6 36bd 4cc2 83bd f60d 16bd c4dc 2c3d
000002e0: 991e 01bd 10c6 893d 62bf 8e3b a217 d93a
000002f0: 971f 223d c772 37bd 4912 a43a eb4e 21bc
00000300: 09e3 f03d 79f2 593c 3591 203d 5244 6c3d
00000310: 4412 4dbb ea8c 003c 3a28 0bbc 5da9 533c
00000320: 7bc6 143c eca3 e6bc 6695 353d dcbf 363c
00000330: 5ccf faba e009 85bd e3a8 01bd 84d9 e53c
00000340: 6950 19bc 41df 273d 6b8b ba3c edea 2d3c
00000350: f783 5d3d e26f 19bd bc65 d93b 82d8 a4bc
00000360: 62d2 ca3d 22c5 a73c e552 7b3c d9bc 563d
00000370: 4cce f33a 1e20 ebbb 126b c7bc 159d 8f3b
00000380: a1a6 2b3b 1737 16bd 7f05 8f3c 399f 36bc
00000390: 43f9 c9bc f3c9 52bd cbe6 07bd 78e4 4b3d
000003a0: 0b4f 23bc 8024 9b3d ec6e b3bb d0c4 a7bc
000003b0: 6fa8 803d 88d6 34bd 6380 f33b ca55 05bc
000003c0: 449b cb3d 9fb9 9e3a 59bb 243d fb05 143d
000003d0: d160 c0bc d05b 193c 6124 55bd f9de 76bc
000003e0: 19a9 ce3c 3624 18bd 6715 f1b9 0173 03bb
000003f0: dd21 95bd 46f6 11bd 89c7 0abd 2ccb 8f3c
0.041681457 -0.0060156193 -0.06420318 0.25276184 0.092434324 0.105141506 -0.0015634927 0.007214162
-0.0654632 -0.25922915 0.15037556 0.020640953 -0.068259135 -0.06582677 0.10671025 0.110235214
-0.18368956 0.10817711 -0.054699186 0.017198075 -0.14298125 -0.18131498 0.049405202 -0.02795526
0.025966201 0.03478182 -0.022095062 0.2011538 0.04446912 0.045127988 0.0012198038 0.05308054
-0.03460073 -0.12952125 0.11735986 -0.031341635 -0.040999066 -0.1602814 0.06637167 0.0619947
-0.09725958 0.076645985 -0.03730499 0.06751449 -0.05976052 -0.11984888 0.008390086 -0.007574204
0.02210983 -0.004607431 -0.032289058 0.16715594 0.04600575 0.043113653 0.01092228 0.011539954
-0.025610875 -0.108856514 0.08600746 -0.009815596 -0.044828318 -0.13413477 0.026116809 0.046462417
-0.08318804 0.056897447 -0.0021376966 0.01832866 -0.026475117 -0.11292644 0.0075716507 -0.025438452
0.0474648 0.034560826 -0.015144872 0.143743 0.032057125 0.02887934 -0.011090318 0.029339487
-0.03729007 -0.09799266 0.089039296 -0.009395352 -0.014398988 -0.12281698 0.016161758 0.05426307
-0.08525986 0.07295781 -0.029372416 0.01957485 -0.020283232 -0.0873174 -0.005236909 0.007163677
0.047689494 0.018041866 0.0043997746 0.10960973 0.047455534 0.027585467 -0.0014638444 0.0059050517
-0.0005361021 -0.07391889 0.056432128 -0.009298851 -0.037104983 -0.1096277 -0.018553462 0.047910284
-0.07516101 0.061599143 -0.014878135 0.00028112327 0.0048775463 -0.09005933 0.0096059 -8.580848e-05
0.08229519 0.031051882 -0.018517265 0.09880941 0.0094423145 0.02243517 -0.014712204 -0.010785641
-0.010431701 -0.089165494 0.037205745 0.0011597297 -0.037267603 -0.10189748 -0.019013839 0.036746375
-0.06051933 0.060711738 -0.0015073065 0.022116946 0.023881268 -0.06605085 0.0008696825 -0.013091413
0.089895636 0.018217169 -0.008203579 0.0752397 -0.0032177116 0.0006614747 -0.017694948 0.010705266
0.014338035 -0.06074997 0.06161823 -0.022553938 -0.011150802 -0.07797563 -0.036206543 0.04804505
-0.06234261 0.05558733 -0.009579105 -0.02780697 0.0073537193 -0.07079249 -0.015536917 0.016192123
0.07977379 0.004899161 0.0144382715 0.08006586 0.020133844 0.005791847 -0.016020304 0.018505577
-0.022365002 -0.036507383 0.027352592 -0.0029499107 -0.04460753 -0.064335436 -0.036634408 0.042202726
-0.03152332 0.067272305 0.0043563107 0.0016562829 0.039580908 -0.044787195 0.0012517656 -0.009845476
0.117620535 0.013302439 0.03920098 0.057682343 -0.0031291405 0.0078460965 -0.0084934775 0.012918797
0.009080525 -0.028154336 0.04433193 0.011154141 -0.0019135284 -0.06496024 -0.031655204 0.028057821
-0.00935755 0.040984396 0.022771558 0.010615093 0.05408093 -0.037460215 0.006634442 -0.02012277
0.099034086 0.020479742 0.015339588 0.052426193 0.001860091 -0.0071754595 -0.024343047 0.0043827393
0.0026191848 -0.03667363 0.017458675 -0.01114636 -0.02465499 -0.051462125 -0.033179086 0.04977843
-0.009967576 0.07575321 -0.0054758694 -0.02047959 0.06282126 -0.044149905 0.0074310764 -0.0081381295
0.09941724 0.0012109763 0.04021773 0.036138516 -0.023483666 0.009360269 -0.052036647 -0.015067809
0.025227116 -0.03714391 -0.00045983048 -0.0020057561 -0.072818495 -0.035635255 -0.033881698 0.017552935

blocks.0.sa.heads.0.tril f4 [32, 32]
00000000: 0000 803f 0000 0000 0000 0000 0000 0000
00000010: 0000 0000 0000 0000 0000 0000 0000 0000
00000020: 0000 0000 0000 0000 0000 0000 0000 0000
00000030: 0000 0000 0000 0000 0000 0000 0000 0000
00000040: 0000 0000 0000 0000 0000 0000 0000 0000
00000050: 0000 0000 0000 0000 0000 0000 0000 0000
00000060: 0000 0000 0000 0000 0000 0000 0000 0000
00000070: 0000 0000 0000 0000 0000 0000 0000 0000
00000080: 0000 803f 0000 803f 0000 0000 0000 0000
00000090: 0000 0000 0000 0000 0000 0000 0000 0000
000000a0: 0000 0000 0000 0000 0000 0000 0000 0000
000000b0: 0000 0000 0000 0000 0000 0000 0000 0000
000000c0: 0000 0000 0000 0000 0000 0000 0000 0000
000000d0: 0000 0000 0000 0000 0000 0000 0000 0000
000000e0: 0000 0000 0000 0000 0000 0000 0000 0000
000000f0: 0000 0000 0000 0000 0000 0000 0000 0000
00000100: 0000 803f 0000 803f 0000 803f 0000 0000
00000110: 0000 0000 0000 0000 0000 0000 0000 0000
00000120: 0000 0000 0000 0000 0000 0000 0000 0000
00000130: 0000 0000 0000 0000 0000 0000 0000 0000
00000140: 0000 0000 0000 0000 0000 0000 0000 0000
00000150: 0000 0000 0000 0000 0000 0000 0000 0000
00000160: 0000 0000 0000 0000 0000 0000 0000 0000
00000170: 0000 0000 0000 0000 0000 0000 0000 0000
00000180: 0000 803f 0000 803f 0000 803f 0000 803f
00000190: 0000 0000 0000 0000 0000 0000 0000 0000
000001a0: 0000 0000 0000 0000 0000 0000 0000 0000
000001b0: 0000 0000 0000 0000 0000 0000 0000 0000
000001c0: 0000 0000 0000 0000 0000 0000 0000 0000
000001d0: 0000 0000 0000 0000 0000 0000 0000 0000
000001e0: 0000 0000 0000 0000 0000 0000 0000 0000
000001f0: 0000 0000 0000 0000 0000 0000 0000 0000
00000200: 0000 803f 0000 803f 0000 803f 0000 803f
00000210: 0000 803f 0000 0000 0000 0000 0000 0000
00000220: 0000 0000 0000 0000 0000 0000 0000 0000
00000230: 0000 0000 0000 0000 0000 0000 0000 0000
00000240: 0000 0000 0000 0000 0000 0000 0000 0000
00000250: 0000 0000 0000 0000 0000 0000 0000 0000
00000260: 0000 0000 0000 0000 0000 0000 0000 0000
00000270: 0000 0000 0000 0000 0000 0000 0000 0000
00000280: 0000 803f 0000 803f 0000 803f 0000 803f
00000290: 0000 803f 0000 803f 0000 0000 0000 0000
000002a0: 0000 0000 0000 0000 0000 0000 0000 0000
000002b0: 0000 0000 0000 0000 0000 0000 0000 0000
000002c0: 0000 0000 0000 0000 0000 0000 0000 0000
000002d0: 0000 0000 0000 0000 0000 0000 0000 0000
000002e0: 0000 0000 0000 0000 0000 0000 0000 0000
000002f0: 0000 0000 0000 0000 0000 0000 0000 0000
00000300: 0000 803f 0000 803f 0000 803f 0000 803f
00000310: 0000 803f 0000 803f 0000 803f 0000 0000
00000320: 0000 0000 0000 0000 0000 0000 0000 0000
00000330: 0000 0000 0000 0000 0000 0000 0000 0000
00000340: 0000 0000 0000 0000 0000 0000 0000 0000
00000350: 0000 0000 0000 0000 0000 0000 0000 0000
00000360: 0000 0000 0000 0000 0000 0000 0000 0000
00000370: 0000 0000 0000 0000 0000 0000 0000 0000
00000380: 0000 803f 0000 803f 0000 803f 0000 803f
00000390: 0000 803f 0000 803f 0000 803f 0000 803f
000003a0: 0000 0000 0000 0000 0000 0000 0000 0000
000003b0: 0000 0000 0000 0000 0000 0000 0000 0000
000003c0: 0000 0000 0000 0000 0000 0000 0000 0000
000003d0: 0000 0000 0000 0000 0000 0000 0000 0000
000003e0: 0000 0000 0000 0000 0000 0000 0000 0000
000003f0: 0000 0000 0000 0000 0000 0000 0000 0000
1.0 0.0 0.0 0.0 0.0 0.0 0.0 0.0
0.0 0.0 0.0 0.0 0.0 0.0 0.0 0.0
0.0 0.0 0.0 0.0 0.0 0.0 0.0 0.0
0.0 0.0 0.0 0.0 0.0 0.0 0.0 0.0
1.0 1.0 0.0 0.0 0.0 0.0 0.0 0.0
0.0 0.0 0.0 0.0 0.0 0.0 0.0 0.0
0.0 0.0 0.0 0.0 0.0 0.0 0.0 0.0
0.0 0.0 0.0 0.0 0.0 0.0 0.0 0.0
1.0 1.0 1.0 0.0 0.0 0.0 0.0 0.0
0.0 0.0 0.0 0.0 0.0 0.0 0.0 0.0
0.0 0.0 0.0 0.0 0.0 0.0 0.0 0.0
0.0 0.0 0.0 0.0 0.0 0.0 0.0 0.0
1.0 1.0 1.0 1.0 0.0 0.0 0.0 0.0
0.0 0.0 0.0 0.0 0.0 0.0 0.0 0.0
0.0 0.0 0.0 0.0 0.0 0.0 0.0 0.0
0.0 0.0 0.0 0.0 0.0 0.0 0.0 0.0
1.0 1.0 1.0 1.0 1.0 0.0 0.0 0.0
0.0 0.0 0.0 0.0 0.0 0.0 0.0 0.0
0.0 0.0 0.0 0.0 0.0 0.0 0.0 0.0
0.0 0.0 0.0 0.0 0.0 0.0 0.0 0.0
1.0 1.0 1.0 1.0 1.0 1.0 0.0 0.0
0.0 0.0 0.0 0.0 0.0 0.0 0.0 0.0
0.0 0.0 0.0 0.0 0.0 0.0 0.0 0.0
0.0 0.0 0.0 0.0 0.0 0.0 0.0 0.0
1.0 1.0 1.0 1.0 1.0 1.0 1.0 0.0
0.0 0.0 0.0 0.0 0.0 0.0 0.0 0.0
0.0 0.0 0.0 0.0 0.0 0.0 0.0 0.0
0.0 0.0 0.0 0.0 0.0 0.0 0.0 0.0
1.0 1.0 1.0 1.0 1.0 1.0 1.0 1.0
0.0 0.0 0.0 0.0 0.0 0.0 0.0 0.0
0.0 0.0 0.0 0.0 0.0 0.0 0.0 0.0
0.0 0.0 0.0 0.0 0.0 0.0 0.0 0.0

blocks.0.sa.heads.0.key.weight f4 [8, 24]
00000000: ea3e 283d b38b a03d a9c2 98bd 962d 74bc
00000010: 5daf a0bc cca8 06be 9b44 843c ec19 c83d
00000020: 9fcc bfbd 9700 16bd 4630 16bd 120a 683d
00000030: 2f37 0abe 082f 13bd bc7f 8e3b 9c5a 853d
00000040: 6bab 143d 1e9a f53b a1ce 79bd d876 68bd
00000050: 9494 e5bd 7fd9 053e cb69 043e 634b 1cbd
00000060: 9f89 04bd 7e68 febd 7067 c6bc 1c38 a13d
00000070: 8c06 973d 31c5 233e 1b03 8abd 33be e2bd
00000080: 1b20 cb3d 8fa8 96bc 0d1c 823d b9e1 1fbd
00000090: ee11 cd3d f910 55bd cc9c 9d3c 1727 4e3a
000000a0: 436b 9cbd d28a e4bc ea21 4d3d 15a9 6a3d
000000b0: 1866 0e3e 07e7 0abe dcbd 3cbe 2758 773d
000000c0: 9e75 fabc a521 79bd c935 0b3d f7ad 283d
000000d0: a625 133d 1e9b fa3d f3c0 1ebd 19be b7bd
000000e0: 2de0 273d 6792 a0bc 4b39 973d 6800 03bc
000000f0: 6c81 293e 5f84 60bc ec07 0cbd db3f 48bd
00000100: ab3a c2bd c784 783c cb45 263d dbfb 873d
00000110: 162e f73d d5ef 2fbe b215 15be 737d 683c
00000120: 00bc eabc dd63 e9bc 2e75 883c 48ba 123e
00000130: 39e3 013d c981 c43d febd a3bd 3056 58bd
00000140: 0e21 59bb 5aaf d6bd 04ab f23d 05cb 133d
00000150: 4d82 ae3d 359e dfbd 91ce 243b 704d 713c
00000160: 4eee d6bd aca9 b73d cb48 e03c e19c cf3d
00000170: 0df5 963d f08d 3abe 3b79 17be 1a9f 953b
00000180: be84 e7bc 510c d6bc 2933 a13d 9a81 ce3c
00000190: 48c7 eb3b 27b2 b33d ed72 42bd 5dde 80bd
000001a0: 30d5 763d 0338 50bd ae76 b83d 1ed4 bcbc
000001b0: 41a5 1e3e 7965 92bc 19ce 28bd c962 08bd
000001c0: 3380 99bd 169c 223d 4718 743d 9892 c63d
000001d0: 70d6 653d 1ddb d6bd 8019 d6bd 1a79 6e3d
000001e0: adad 4dbd 0fc2 dfbd 87e1 133d e1da 64ba
000001f0: 789e af3c 7b1c 0b3e 7568 1abd 124b d1bd
00000200: 8014 cf3d 5ca9 663c 972e ee3c caa1 72bd
00000210: 3c4a 253e 2ec2 10bd 664f 4fbd 563c 17bd
00000220: a710 66bd e700 88bd 1d3c c83d a080 1f3d
00000230: 63d1 b23d e4d4 16be b90d 2fbe fb8f a6ba
00000240: ccbe 023d ec61 473b 6291 58bd 42f4 6ebd
00000250: 2f7a 2b3c c4d4 b9bd 8ab2 113d a5fb 513c
00000260: 3d9f 0ebd 0334 a43d 26fb a1bd 4886 acbc
00000270: 4e13 c9bd 8851 bd3d 4524 f83c f3c3 81bc
00000280: 6e28 a03d 5589 13bd 0d24 8abc a3ba c3bd
00000290: 2705 4cbd 4507 3b3e 890f fb3d b512 013d
000002a0: 5453 1438 c8af b13b 8b09 3d3d c02d 013e
000002b0: 8b28 34bd f07a ac3d 7495 99bd 605f 903d
000002c0: cf2c 2dbd 5494 38be 78b8 363e 013e 973d
000002d0: c1e8 313d b467 49be b715 14bd d191 d73c
000002e0: d361 98bd 4505 063e 3049 b9bc bc1a 1a3e
000002f0: 0775 493d dafb 5ebe 4ff8 bcbd 22bd 26bd
0.041075625 0.078391455 -0.074590035 -0.014903447 -0.01961487 -0.13150328 0.016145995 0.09770569
-0.093652 -0.036621656 -0.03666713 0.05665023 -0.13497613 -0.035933524 0.004348723 0.06511423
0.03629629 0.007495179 -0.060988072 -0.056753963 -0.1120998 0.1307125 0.12930982 -0.038157832
-0.03235781 -0.12422274 -0.024219245 0.0787203 0.073742956 0.15993191 -0.067388736 -0.11071434
0.09918233 -0.018390922 0.063530065 -0.039033625 0.100131854 -0.05201814 0.019239806 0.0007864101
-0.07637646 -0.027898226 0.05008117 0.057290155 0.13906133 -0.13564692 -0.184318 0.060386803
-0.030573662 -0.0608231 0.03398684 0.04118153 0.035924576 0.122366175 -0.03875823 -0.08971805
0.040985275 -0.01960106 0.07383975 -0.007995702 0.16553277 -0.013703435 -0.034187242 -0.048889022
-0.09483846 0.015168375 0.040593904 0.066398345 0.12069337 -0.17181332 -0.14559057 0.014190066
-0.028654099 -0.028490001 0.016657438 0.14328873 0.031710837 0.09595067 -0.079952225 -0.05281657
-0.0033131274 -0.104826644 0.11849025 0.036082286 0.08520947 -0.109188475 0.0025147537 0.014727935
-0.10494672 0.08967909 0.02737846 0.10137344 0.073709585 -0.18218207 -0.1479234 0.0045660855
-0.028261539 -0.02612892 0.07871086 0.025208283 0.007195387 0.08774214 -0.047472883 -0.062924124
0.060261905 -0.050834667 0.09007011 -0.023050364 0.15492727 -0.017870652 -0.041212175 -0.033297334
-0.07495155 0.039699636 0.059593465 0.09695929 0.056112707 -0.10491011 -0.104540825 0.05822096
-0.05021446 -0.109256856 0.03610375 -0.0008730125 0.021437868 0.13585083 -0.037697274 -0.10219397
0.10111332 0.014078464 0.02907495 -0.059236325 0.161416 -0.035341434 -0.05061283 -0.036922775
-0.056168225 -0.06640797 0.09777091 0.038941026 0.087313436 -0.14729649 -0.17095079 -0.0012707704
0.03192024 0.0030423356 -0.052873023 -0.05833841 0.010466143 -0.09073785 0.03557066 0.012816344
-0.03481983 0.08017733 -0.07909231 -0.021060124 -0.09818135 0.092440665 0.030290732 -0.015840506
0.07820211 -0.036019642 -0.016862893 -0.095570825 -0.0498096 0.18264492 0.122588225 0.03151198
3.5363555e-05 0.005422566 0.04615168 0.12615108 -0.043983977 0.08421886 -0.07499209 0.07049441
-0.04227906 -0.18025333 0.17843807 0.07384873 0.043434862 -0.19668466 -0.03615352 0.026314648
-0.074405335 0.13087948 -0.022617906 0.15049261 0.04918387 -0.21775761 -0.092270486 -0.040707715

blocks.0.sa.heads.0.query.weight f4 [8, 24]
00000000: ad8e a23c 8e67 693d 4ee0 dfbb fcbf f63c
00000010: 3453 9c3d c4d6 4cbb 5b8c 4ebd a24f d63d
00000020: cb8a 00be 68b4 d6ba d1a1 9b3d 68a9 473e
00000030: 7feb 573d 4356 3fbe 8555 07be e8e3 d1b7
00000040: cee1 a1bd 90ea 273e a1a9 5abd 0ae0 243c
00000050: c3e0 133d cbc7 f2bd 0e39 edbd 842c 303d
00000060: 9258 913d 7848 fdbc cb98 97bd f33a 9e3c
00000070: 9285 883c c63e c9bd 1ff8 df3d 1dca c9bd
00000080: ed2d acbc 7537 5d3d 6143 0ebe 886d 6ebd
00000090: 2784 05be 6f78 e03d b2a4 123e b514 ba3d
000000a0: c44e 093e e8ee 2bbe bd61 123e 56aa d1bd
000000b0: e750 b03d f934 343e 8215 b33d 43e8 86bd
000000c0: 1bf3 4e3d 015d 96bd 51b5 a5bc ae4a 453d
000000d0: 9ff0 ec3c 2614 abbd d025 783d 713d c4bd
000000e0: 1163 4e3c f79f 70bd b150 00be 2eae 2bbe
000000f0: 15f1 e2bd 5fe7 c83d 27cc 073e 69d6 633d
00000100: c6fa ef3c 47ab 20be c7a8 7f3d 3385 8fbc
00000110: 01fb 9c3c 6a2e c13d 0e1a af3d 3b5c d1bd
00000120: 65af 883d 727d 36bb f0b1 adbb 7d14 663e
00000130: 075f df3c 6a63 8ebc 29a9 15bc b82a 92bd
00000140: aec9 10bd 0f43 38be 5dc9 2fbd 5198 dabd
00000150: bcf1 a5bd 0842 4abd 7c07 093e df01 df3d
00000160: ed9d 1abd 5f56 07bd a787 bd3c a8f2 50bd
00000170: cc9e 2e3d 2aae ba3c 932e 433d c809 8abd
00000180: 76d6 07bd 52cf 06bc 4e54 0f3d 5b53 ef3d
00000190: 62f7 8ebc a32c 1c3b 5945 d03c 6a5a 88bd
000001a0: 14ab 833d 8f8a d0bd 03e9 0fbd 018b 63be
000001b0: 2bdf f8bc b39e a03d e318 403d 61d8 d63c
000001c0: f93d 623d 2763 edbd 93de 553d 0a2f 813c
000001d0: b660 11bd b0af 863d 17e2 bc3d 7f11 6dbd
000001e0: 2791 023c 2253 f1bd 34c7 53bd c5a6 91bd
000001f0: 6a42 04bc 740e 2abd e0f7 c33d 3c96 d9bd
00000200: 39d9 b33d d507 7f3c 31a4 f2bd bec4 05be
00000210: b6d0 ecbd cca5 393e 0762 0e3e 09d0 573c
00000220: 97d5 f43d c763 5ebe 7498 023e 2f86 7fbd
00000230: 398b 813c f536 213e ce71 a83d 6f47 fbbd
00000240: de86 27bc 5595 433c 8eaf a93c 9b28 4cbe
00000250: 8a0e 663c 1c68 cbbc e1d7 5fbc db56 763d
00000260: fbc0 71bd fe5a 223e bb31 e73c d25b 203e
00000270: e56e ab3c 40fe bab9 ab60 cfbd edd4 91bd
00000280: cbfe 1a3d 2e8c f43c 4efc 0fbc 8765 da3a
00000290: 557c 5e3a 0a63 c4bb 8893 9dbd ad72 8d3d
000002a0: 0a0f 973d c486 313d 2979 a93c 744e 903e
000002b0: e56a a83c a66e 61bb 1b99 19bd ad5e febc
000002c0: 505f 2dbb d952 83be f404 8e3d 59d2 e1bd
000002d0: 9a27 d1bd de24 0cbe f40d b33d 4b7c 9e3d
000002e0: ec66 c8bd 198a 713d ee63 9dbc cbdc fd3b
000002f0: 377b cf3c d431 61bd b7dd 993d 7b86 a1bd
0.019843424 0.056983523 -0.006832159 0.030120842 0.07633057 -0.003125594 -0.050426822 0.104644075
-0.12552945 -0.001638067 0.075992234 0.19498217 0.05271482 -0.1868525 -0.13216217 -2.5020869e-05
-0.07904397 0.16398072 -0.053384427 0.010063181 0.03610302 -0.11854514 -0.11583148 0.043011203
0.070969716 -0.030918345 -0.0740219 0.019315219 0.016665254 -0.09826426 0.10935997 -0.09853003
-0.021017993 0.054007966 -0.1389289 -0.058209926 -0.13038693 0.10960471 0.14320639 0.09085981
0.13408953 -0.16790354 0.14295097 -0.10237567 0.08609181 0.17598332 0.08744337 -0.06587269
0.050524812 -0.07341958 -0.02022806 0.048166923 0.02892333 -0.083534524 0.060582936 -0.095820315
0.012596861 -0.058746304 -0.12530781 -0.16765663 -0.11081139 0.098097555 0.13261472 0.0556244
0.029294383 -0.15690337 0.062416818 -0.017519569 0.019162657 0.09432681 0.085498914 -0.1022267
0.06674079 -0.0027845767 -0.005300753 0.22468753 0.027266992 -0.017381389 -0.009134569 -0.07137054
-0.035348587 -0.17994331 -0.042916644 -0.10673583 -0.08102748 -0.04937938 0.13381761 0.10889029
-0.037748266 -0.033041354 0.023135973 -0.051012665 0.04263191 0.022788126 0.04765184 -0.06740147
-0.03316351 -0.00822814 0.03499251 0.11685821 -0.017451946 0.0023830316 0.025423693 -0.0665787
0.06429115 -0.10182678 -0.035134327 -0.22220995 -0.030379852 0.078427695 0.046898734 0.026226224
0.055234883 -0.115911774 0.052214216 0.0157695 -0.03549262 0.065764785 0.09222811 -0.057878014
0.007969177 -0.117834345 -0.051703647 -0.07111887 -0.008072475 -0.04151769 0.09568763 -0.10624358
0.08781666 0.015565832 -0.11847723 -0.13063332 -0.11563246 0.18129653 0.13904582 0.013172158
0.119548015 -0.2171775 0.12753469 -0.062383827 0.015813457 0.1574362 0.082248315 -0.12269484
-0.010225026 0.011937459 0.020713594 -0.19937365 0.014041552 -0.024829917 -0.013662309 0.060141426
-0.05902193 0.15855023 0.028221956 0.15660027 0.020926902 -0.00035666116 -0.1012586 -0.071206905
0.037840646 0.029852 -0.0087881815 0.0016662338 0.0008487155 -0.0059932517 -0.07694155 0.06906638
0.07375915 0.043341413 0.020687656 0.28184855 0.020558784 -0.0034398227 -0.03749953 -0.031051004
-0.0026454516 -0.25649145 0.069345385 -0.11026449 -0.102126315 -0.13685939 0.08742896 0.07738551
-0.09785256 0.05896959 -0.01921269 0.007747268 0.025327308 -0.05497916 0.07512992 -0.07886978

blocks.0.sa.heads.0.value.weight f4 [8, 24]
00000000: f1c1 e0bd 4813 e63d 83d5 153e f3db 023b
00000010: f0ef 77bd 1f28 ecbc c1b7 c93d dcf5 97ba
00000020: edd1 11bd 62b7 43bb 80eb e53c 3dbd 8ebe
00000030: 3f6a adbc f92f a63d 408d 4d3d a9a0 e639
00000040: 797d 6dbc ff5f d9bc 3983 18bd b42e 1dbb
00000050: c30b e23d 0fd8 43bd 4d66 873c 1da6 cfbc
00000060: 7fea b13d 60f7 d03c fba3 c33d b387 ae3d
00000070: 5f00 ab3d 1484 dd3c 34dc 04be eb65 ffbd
00000080: 9829 c5bc 253c 313b a317 4ebd 38f4 de3b
00000090: ea42 6c3d 5091 57bd 5ba7 953d ad5d a2bc
000000a0: 3323 903d f551 a3bd 0efc 9e3c 14f5 f8bb
000000b0: 2045 a03b 3ec6 203c e1e4 95bd 5e72 023d
000000c0: 30c8 833d b09d bcbb 4bc4 223e 6ff0 5abd
000000d0: 94b5 513e 5e85 5a3c 6af3 a03c 89c8 763d
000000e0: 9825 d63c 95e2 29bc aa94 96ba 286a 8dbd
000000f0: f4c7 9d3d 2b7d cfbc 6830 003e 6735 b7bd
00000100: 6b94 1dbd a3dc 68bc ca9f 9dbd 34ba 9dbd
00000110: 5908 40bd 76a0 3fbd beb5 54bd 6780 17be
00000120: 064c 8a3d e1ee 07be f6dc 143e 0d1d 493c
00000130: 3327 32bb 312c 8e3d 227c 41be f3d0 a8bd
00000140: 90f4 71bd ba41 253d 8b2a 56bd e87c 243e
00000150: fdb0 053d 3a5c b1bd 9769 913d fc00 103d
00000160: 91bb 893d ef7c 38bd 4cf5 acbd c452 4dbd
00000170: a08e 293c 00b3 c73c b29d 9abc 01eb 77bd
00000180: d160 c53d f393 98bc 67c8 6c3d b324 ec3d
00000190: d692 723d b617 103d 483d 373c 9495 c1bd
000001a0: f90d 783d 5b37 1abd 36f9 f1bc ad4e 00be
000001b0: 1c5c c33d 5235 36bd 7df3 0ebd 2398 babd
000001c0: ef2f 7b3d 6c8d 98bd d30e 163d 34c8 29be
000001d0: 9dcd 8b3d e855 73bd 0158 2fbd c01a 0c3e
000001e0: 3365 023e 32af 2dbd b543 39be 824c da3c
000001f0: f3a2 383d fce9 b13a 1989 063d b31b a8bd
00000200: 2407 7e3d 5ce4 603c 3ea5 6fbd 3961 533d
00000210: 006a 073d da7c 98bd 42ad 1dbe fd20 67bd
00000220: b4b7 973c 8fd8 19bd 957d 953d bb55 cb3c
00000230: 4c55 2a3d 30aa ad3b 6976 9ebc cdc1 aa3d
00000240: 6e4e bb3c 7602 1fbd 848e 95bd 907c 623d
00000250: bb1f c43d 2f82 a4bc a806 663d 9a36 d0bd
00000260: d83f 193c 8d53 08bd 126b 453c 72cb 353d
00000270: 6118 8c3c a035 09bc a3f8 693c 245b 1a3d
00000280: c14d 3ebd 6935 a33c 91f4 91bd 5985 0e3d
00000290: 7fdf ac3c 541a a43c f8e1 9bbd 1769 b63d
000002a0: 5acf cebc 777d a2bd f05c 413c 8ac0 53bd
000002b0: ae49 febc 9e00 d7bd 1579 0c3e 22ab e8bc
000002c0: 1753 0cbd 70fe 90bc 6a1a f1bb f5cf 163d
000002d0: d06b d2bd 243c 1cbc f570 28bd 8319 2e3d
000002e0: f263 193c 25f1 c03b 0859 09be 9634 bb3d
000002f0: dc60 0c3b 6fd2 efbb 7a82 6bbc be6a 5c3c
-0.109744914 0.11234146 0.1463223 0.0019967526 -0.060531557 -0.028827725 0.098495014 -0.0011593658
-0.03560059 -0.0029863943 0.028066397 -0.27878752 -0.021168826 0.08114619 0.050183535 0.0004398872
-0.014495247 -0.026535032 -0.03723452 -0.0023984136 0.110373996 -0.04781347 0.016528273 -0.025347764
0.08687305 0.025508583 0.09552761 0.08521976 0.0834968 0.027040519 -0.12974626 -0.12470611
-0.024067685 0.0027043906 -0.05031551 0.0068040155 0.057681 -0.052628815 0.07307311 -0.019820059
0.07037964 -0.079746164 0.019407298 -0.007597575 0.004891053 0.00981289 -0.07319046 0.03184735
0.06434667 -0.0057561025 0.15895192 -0.05345195 0.20479423 0.013337461 0.019647319 0.06024984
0.026140973 -0.010368963 -0.0011488397 -0.06905013 0.07704154 -0.02532824 0.12518466 -0.089457326
-0.03847162 -0.01421276 -0.07696493 -0.07701531 -0.04688296 -0.046783887 -0.051931135 -0.14795075
0.067527816 -0.13274719 0.14537415 0.012274993 -0.002718401 0.069420226 -0.18895009 -0.08242979
-0.059071124 0.040345885 -0.052286666 0.16063273 0.032639492 -0.08660169 0.07100218 0.03515719
0.067252286 -0.04504102 -0.08445224 -0.05012776 0.010348946 0.024377346 -0.018874023 -0.06052685
0.09637607 -0.018625235 0.057808306 0.11530437 0.059222065 0.035178863 0.011184044 -0.09452358
0.0605602 -0.037650447 -0.029537778 -0.12530012 0.09539053 -0.044484444 -0.034900177 -0.09111049
0.06132501 -0.07448849 0.03663523 -0.16580278 0.06826327 -0.0594081 -0.042808536 0.1368208
0.12733917 -0.042403407 -0.18092234 0.02664781 0.045077275 0.0013573761 0.03284559 -0.08208408
0.06201853 0.01372632 -0.058507197 0.05160639 0.033060074 -0.074456885 -0.15398124 -0.056427944
0.018520214 -0.037560042 0.072993435 0.024821153 0.04158525 0.005299829 -0.019343572 0.08337746
0.022864547 -0.038820706 -0.07302573 0.055294573 0.095763646 -0.020081608 0.05615869 -0.101666644
0.0093536 -0.033282805 0.012049453 0.044383474 0.017101469 -0.008374602 0.014280471 0.037684575
-0.04646087 0.019922929 -0.071267255 0.03479514 0.021102665 0.020032085 -0.076114595 0.08906763
-0.025245357 -0.07934087 0.011801943 -0.05169729 -0.031040993 -0.104981646 0.13718064 -0.028401915
-0.03425893 -0.01769945 -0.007357885 0.036819417 -0.1027447 -0.009535823 -0.04112335 0.0425048
0.009362208 0.0058881217 -0.13412869 0.09140889 0.0021420037 -0.007318787 -0.01437437 0.013453184

blocks.0.sa.heads.1.tril f4 [32, 32]
00000000: 0000 803f 0000 0000 0000 0000 0000 0000
00000010: 0000 0000 0000 0000 0000 0000 0000 0000
00000020: 0000 0000 0000 0000 0000 0000 0000 0000
00000030: 0000 0000 0000 0000 0000 0000 0000 0000
00000040: 0000 0000 0000 0000 0000 0000 0000 0000
00000050: 0000 0000 0000 0000 0000 0000 0000 0000
00000060: 0000 0000 0000 0000 0000 0000 0000 0000
00000070: 0000 0000 0000 0000 0000 0000 0000 0000
00000080: 0000 803f 0000 803f 0000 0000 0000 0000
00000090: 0000 0000 0000 0000 0000 0000 0000 0000
000000a0: 0000 0000 0000 0000 0000 0000 0000 0000
000000b0: 0000 0000 0000 0000 0000 0000 0000 0000
000000c0: 0000 0000 0000 0000 0000 0000 0000 0000
000000d0: 0000 0000 0000 0000 0000 0000 0000 0000
000000e0: 0000 0000 0000 0000 0000 0000 0000 0000
000000f0: 0000 0000 0000 0000 0000 0000 0000 0000
00000100: 0000 803f 0000 803f 0000 803f 0000 0000
00000110: 0000 0000 0000 0000 0000 0000 0000 0000
00000120: 0000 0000 0000 0000 0000 0000 0000 0000
00000130: 0000 0000 0000 0000 0000 0000 0000 0000
00000140: 0000 0000 0000 0000 0000 0000 0000 0000
00000150: 0000 0000 0000 0000 0000 0000 0000 0000
00000160: 0000 0000 0000 0000 0000 0000 0000 0000
00000170: 0000 0000 0000 0000 0000 0000 0000 0000
00000180: 0000 803f 0000 803f 0000 803f 0000 803f
00000190: 0000 0000 0000 0000 0000 0000 0000 0000
000001a0: 0000 0000 0000 0000 0000 0000 0000 0000
000001b0: 0000 0000 0000 0000 0000 0000 0000 0000
000001c0: 0000 0000 0000 0000 0000 0000 0000 0000
000001d0: 0000 0000 0000 0000 0000 0000 0000 0000
000001e0: 0000 0000 0000 0000 0000 0000 0000 0000
000001f0: 0000 0000 0000 0000 0000 0000 0000 0000
00000200: 0000 803f 0000 803f 0000 803f 0000 803f
00000210: 0000 803f 0000 0000 0000 0000 0000 0000
00000220: 0000 0000 0000 0000 0000 0000 0000 0000
00000230: 0000 0000 0000 0000 0000 0000 0000 0000
00000240: 0000 0000 0000 0000 0000 0000 0000 0000
00000250: 0000 0000 0000 0000 0000 0000 0000 0000
00000260: 0000 0000 0000 0000 0000 0000 0000 0000
00000270: 0000 0000 0000 0000 0000 0000 0000 0000
00000280: 0000 803f 0000 803f 0000 803f 0000 803f
00000290: 0000 803f 0000 803f 0000 0000 0000 0000
000002a0: 0000 0000 0000 0000 0000 0000 0000 0000
000002b0: 0000 0000 0000 0000 0000 0000 0000 0000
000002c0: 0000 0000 0000 0000 0000 0000 0000 0000
000002d0: 0000 0000 0000 0000 0000 0000 0000 0000
000002e0: 0000 0000 0000 0000 0000 0000 0000 0000
000002f0: 0000 0000 0000 0000 0000 0000 0000 0000
00000300: 0000 803f 0000 803f 0000 803f 0000 803f
00000310: 0000 803f 0000 803f 0000 803f 0000 0000
00000320: 0000 0000 0000 0000 0000 0000 0000 0000
00000330: 0000 0000 0000 0000 0000 0000 0000 0000
00000340: 0000 0000 0000 0000 0000 0000 0000 0000
00000350: 0000 0000 0000 0000 0000 0000 0000 0000
00000360: 0000 0000 0000 0000 0000 0000 0000 0000
00000370: 0000 0000 0000 0000 0000 0000 0000 0000
00000380: 0000 803f 0000 803f 0000 803f 0000 803f
00000390: 0000 803f 0000 803f 0000 803f 0000 803f
000003a0: 0000 0000 0000 0000 0000 0000 0000 0000
000003b0: 0000 0000 0000 0000 0000 0000 0000 0000
000003c0: 0000 0000 0000 0000 0000 0000 0000 0000
000003d0: 0000 0000 0000 0000 0000 0000 0000 0000
000003e0: 0000 0000 0000 0000 0000 0000 0000 0000
000003f0: 0000 0000 0000 0000 0000 0000 0000 0000
1.0 0.0 0.0 0.0 0.0 0.0 0.0 0.0
0.0 0.0 0.0 0.0 0.0 0.0 0.0 0.0
0.0 0.0 0.0 0.0 0.0 0.0 0.0 0.0
0.0 0.0 0.0 0.0 0.0 0.0 0.0 0.0
1.0 1.0 0.0 0.0 0.0 0.0 0.0 0.0
0.0 0.0 0.0 0.0 0.0 0.0 0.0 0.0
0.0 0.0 0.0 0.0 0.0 0.0 0.0 0.0
0.0 0.0 0.0 0.0 0.0 0.0 0.0 0.0
1.0 1.0 1.0 0.0 0.0 0.0 0.0 0.0
0.0 0.0 0.0 0.0 0.0 0.0 0.0 0.0
0.0 0.0 0.0 0.0 0.0 0.0 0.0 0.0
0.0 0.0 0.0 0.0 0.0 0.0 0.0 0.0
1.0 1.0 1.0 1.0 0.0 0.0 0.0 0.0
0.0 0.0 0.0 0.0 0.0 0.0 0.0 0.0
0.0 0.0 0.0 0.0 0.0 0.0 0.0 0.0
0.0 0.0 0.0 0.0 0.0 0.0 0.0 0.0
1.0 1.0 1.0 1.0 1.0 0.0 0.0 0.0
0.0 0.0 0.0 0.0 0.0 0.0 0.0 0.0
0.0 0.0 0.0 0.0 0.0 0.0 0.0 0.0
0.0 0.0 0.0 0.0 0.0 0.0 0.0 0.0
1.0 1.0 1.0 1.0 1.0 1.0 0.0 0.0
0.0 0.0 0.0 0.0 0.0 0.0 0.0 0.0
0.0 0.0 0.0 0.0 0.0 0.0 0.0 0.0
0.0 0.0 0.0 0.0 0.0 0.0 0.0 0.0
1.0 1.0 1.0 1.0 1.0 1.0 1.0 0.0
0.0 0.0 0.0 0.0 0.0 0.0 0.0 0.0
0.0 0.0 0.0 0.0 0.0 0.0 0.0 0.0
0.0 0.0 0.0 0.0 0.0 0.0 0.0 0.0
1.0 1.0 1.0 1.0 1.0 1.0 1.0 1.0
0.0 0.0 0.0 0.0 0.0 0.0 0.0 0.0
0.0 0.0 0.0 0.0 0.0 0.0 0.0 0.0
0.0 0.0 0.0 0.0 0.0 0.0 0.0 0.0

blocks.0.sa.heads.1.key.weight f4 [8, 24]
00000000: 45d9 ccbd 7f0c c8bc a050 15bd 74b8 05bf
00000010: 8dd6 c2bc 1c24 b7bd 1c53 763d 5d01 79bd
00000020: f576 603c 41a1 853e 2331 39be f21e acbc
00000030: 0a61 963d 7b7d 9b3e 5992 36bc 93ce 8cbc
00000040: d1db 093e af8d 46be 3975 1a3d 53a0 f4bc
00000050: 031a 293d e470 b13e 4f8a 8cbc c09c 5b3d
00000060: f4b2 a13c aded 033c cba4 083d ce0d 0a3f
00000070: bf8d 0fbc d5c2 993d ec90 98bc c02e b93d
00000080: 9ba2 74bc ebf4 a1be b883 3e3e fb24 96bb
00000090: ae2e 963b 9940 8ebe b839 62bc 2e2c 3e3c
000000a0: 2690 2fbe c58a 3c3e 7e6b 04bc 882d 883d
000000b0: 674e 86bd f0fa aabe 6e7e bebc dca0 c83b
000000c0: 2b65 4f3d 3ce1 b03d f801 1ebb b5c0 f63e
000000d0: 6edf 4939 ae09 e13d 008e 06bd c2a0 9c3d
000000e0: 651f 1ebd d2b6 9bbe f2f0 403e 2244 0a3d
000000f0: ba7f 33bd f66c a3be 2171 c2bc 6709 393d
00000100: c15f 0ebe 5a9d 513e 4380 63bd cb57 723d
00000110: c7e2 1fbd d3bc 88be 6619 283c 3c30 04bd
00000120: b41d 6a3d 2f4e dc3c 6563 6f3d eb3e fa3e
00000130: 8fa0 56bb 623e fc3d 7398 9abd 7a15 d03c
00000140: 134c 6b3c 18f4 bbbe eb7f 593e 9649 93bd
00000150: 3b0f c13b a972 93be 0d7c 4fbd 7eec 3b3b
00000160: 8c8f 0abe b81b 3d3e 8d8e 10bd 874e 8e3d
00000170: 39ce 4bbd d5fc afbe 3034 c63c e627 1cbc
00000180: 4fc2 19bc e65d 95bd f3ff 8bbc e52b f3be
00000190: d67a 30bc f747 a4bd f61b 9c3d 2af5 a7bd
000001a0: 6f92 433d 688e a03e 7939 39be 69f9 edbc
000001b0: 2477 b13d fbb9 953e bf80 8a3c 7d8a 4bbd
000001c0: 6b97 143e bec4 29be d7a7 003d ceca d1bd
000001d0: c80d ad3c c859 8e3e 1c6c 8b3c bd39 d83c
000001e0: 0a8a f1bc 30af f13a 1dcf 21bd beac f9be
000001f0: 19c6 243b a0b8 acbd 7986 6d3d 45e4 aebd
00000200: 1a87 143d e6c4 923e 2615 45be 4325 b73c
00000210: 57bd 183d 3e00 933e 03a7 8e3c 173d a7ba
00000220: 5a97 193e 406e 41be 1870 473d 4288 3cbd
00000230: 4622 773c 0399 8d3e 0977 8a3c 741e 013d
00000240: 44bd 8bbd 1a34 c8bc 32c5 87bc 2711 04bf
00000250: b2c1 a83a 13a1 53bd 5546 e93c 5be6 47bd
00000260: 9325 343d 1ecd 873e b920 42be 6faf 393d
00000270: 6364 9a3d 33a1 963e 4eee afbc dd10 3dbd
00000280: 178b 053e 406d 4ebe 81c4 e83c 952b 23bd
00000290: 863d 623b e464 a63e b2a6 beba e02e 963d
000002a0: d62e 02bd c56f b9bc 85af 16bc 5dec 09bf
000002b0: 4ba3 c23c 1346 f2bc 78cd 4c3d 0bd2 bfbd
000002c0: d7ed 2dbc 1c9b ad3e 4cff 2bbe 01a6 b23c
000002d0: 5748 49bc 12d7 983e d2f2 593c 0e02 20bd
000002e0: 61a2 3c3e 3595 27be 9bcd 153d 625e 3fbd
000002f0: 412c dc3b a442 ae3e 1569 6ebb 538a 6c3d
-0.100023784 -0.024420021 -0.036453843 -0.5223458 -0.023783946 -0.08942434 0.060137853 -0.060792316
0.013700237 0.2609959 -0.1808515 -0.02101085 0.073427275 0.30369172 -0.01114329 -0.017188346
0.1346276 -0.19389986 0.03770945 -0.029861605 0.041284572 0.3465644 -0.017155794 0.053616285
0.019738652 0.008052272 0.033360284 0.53927314 -0.008761822 0.075078644 -0.018623792 0.0904212
-0.014931346 -0.3163217 0.18604934 -0.004582045 0.0045832014 -0.2778366 -0.013807707 0.011607213
-0.17144832 0.18412311 -0.008082269 0.066493094 -0.06557923 -0.33394575 -0.023253646 0.0061226916
0.05063359 0.0863671 -0.002411006 0.481939 0.00019252088 0.109881744 -0.032850266 0.076478496
-0.03860416 -0.30412918 0.18841913 0.033756383 -0.04382298 -0.31919068 -0.023735585 0.045174982
-0.13903715 0.20470181 -0.05554224 0.059165757 -0.03903463 -0.2670656 0.010259962 -0.032272562
0.057157233 0.02689275 0.0584444 0.48876128 -0.003274951 0.12316586 -0.07548609 0.025400866
0.014361399 -0.36709666 0.21240203 -0.0719177 0.005891708 -0.28798416 -0.050655413 0.0028674896
-0.13531321 0.18467605 -0.035292197 0.06948572 -0.049757216 -0.34372583 0.024194807 -0.009530997
-0.009384706 -0.072933 -0.01708982 -0.47494426 -0.010771474 -0.08021539 0.076225206 -0.08201058
0.04774707 0.31358647 -0.1808833 -0.029049592 0.086653024 0.29243454 0.016907094 -0.04969262
0.14510886 -0.16578957 0.031410065 -0.1024376 0.021124735 0.27802873 0.017019324 0.02639472
-0.029484767 0.0018439051 -0.03950416 -0.48764604 0.002514249 -0.08433652 0.05798957 -0.08539633
0.036261655 0.28665847 -0.19246349 0.022356635 0.037289944 0.28711122 0.017413622 -0.0012759295
0.14999142 -0.18889713 0.048690885 -0.046028383 0.015083855 0.276558 0.016902464 0.031523183
-0.06823209 -0.024438906 -0.016573522 -0.5158867 0.0012875109 -0.051667284 0.02847592 -0.04880367
0.043981146 0.2652368 -0.18957795 0.045333322 0.075386785 0.2941986 -0.021475937 -0.04615866
0.1304134 -0.20158863 0.028414013 -0.039836485 0.0034521534 0.32498848 -0.0014545529 0.073331594
-0.031782947 -0.022636304 -0.009197121 -0.53876287 0.023759505 -0.02957443 0.050000638 -0.093662344
-0.0106157875 0.33907402 -0.16796607 0.021807672 -0.012285314 0.29851586 0.013302522 -0.03906446
0.18421318 -0.16365512 0.036573034 -0.04672087 0.0067191427 0.34035218 -0.0036378552 0.057749104

blocks.0.sa.heads.1.query.weight f4 [8, 24]
00000000: 5d71 c0be ce1b bf3e 8bc0 f23e f8b1 a6bd
00000010: 62b1 80be 9682 363e fcbe c2be 9a40 c73e
00000020: b2b5 a43e f842 c7bd 60d7 873e 2c3f 4ebe
00000030: 1465 133f 430c 0bbe 75d5 1cbf 61d9 f7be
00000040: 9252 4bbe 4103 633e 1173 d6be b0a1 f53e
00000050: 71ab d0be 7181 9cbe 2188 19bf 2fff 213f
00000060: 201a 023f 8d52 03bf 0573 f9be 8afa 383e
00000070: 8c8c 1b3e 8eda 35be eb7b e23e a3d1 11bf
00000080: 936f d4bc c5e4 a0bd 5258 bebe c3ab 303d
00000090: 0d6c 22bf 2e36 223e 952d 2d3f 8789 df3e
000000a0: c1d7 1d3e d589 93be 244c 1e3f 7ff7 0fbf
000000b0: 3783 023f fe48 cd3e 9055 133f 67f3 2fbf
000000c0: 8435 9c3e 5244 a1be a104 bbbe da65 3ebc
000000d0: 2ce7 553e ac86 c2bd 8fec 9e3e 913a a2be
000000e0: de32 2dbe 7aa8 663d 351f 81be 21f6 133e
000000f0: fc13 bbbe ad2d 063e f499 f13e ea62 a43e
00000100: da0c 0f3e 9f72 54be 2dac b63e 6b5b bcbe
00000110: e61d 9b3e ddd2 8f3e 1351 cd3e 82fe e5be
00000120: 2cc3 d23e 4957 00bf 2bec ddbe 71ce 8c3e
00000130: 1b27 0f3e 1fa7 eabd 730b ce3e bcf0 0dbf
00000140: 3259 f7bb c53e 03be eb44 b1be 6668 7bbd
00000150: e6cc 09bf b2f5 373e 16cd 183f 9515 b83e
00000160: 34c0 d53d abbe 46be fe33 193f 4456 eabe
00000170: 8cc2 e53e f2e9 bd3e c218 0f3f ecc8 23bf
00000180: 64e3 96be c0e5 b63e 3ae4 bf3e 6413 e0bc
00000190: decc 63be e5de 093e 5728 93be d3bf 963e
000001a0: 42e7 0e3e b902 5fbd 429e 863e b750 04be
000001b0: 29b8 ce3e 4156 49be 8e3d e2be 4151 99be
000001c0: ce72 dcbd c4be 623e c06f ccbe 4a80 b93e
000001d0: f0b3 99be 1c2e 8abe fce1 c2be 33ab e13e
000001e0: c4f5 d0be be13 d43e c0f5 d23e d737 09be
000001f0: 84fc 46be 276c 443e 211c a6be c237 df3e
00000200: ae24 003e 0541 a73c bfb5 933e 11b5 92bd
00000210: 9345 013f 0317 1bbe 88b0 0dbf 7e08 c4be
00000220: 154e 00be cc4a 6e3e 967c fcbe 3260 e73e
00000230: 37b3 bcbe 053c b4be cab3 0fbf 9a40 163f
00000240: 534b ddbe 37d9 db3e 1050 fa3e 97e7 babd
00000250: a36c 87be a8be 233e 3dfc b8be b098 dd3e
00000260: 811a b23e 181b 80bd 7d14 913e 39ce 67be
00000270: 509b 293f 1c8d 06be e643 1fbf accb 0dbf
00000280: 82e8 2abe 3fd2 4c3e 4029 e8be 18ad 0c3f
00000290: bf4e debe a1f2 c5be 6daa 2dbf 1525 313f
000002a0: e50e 02bf bfcd 0d3f 8278 053f 87a7 3fbe
000002b0: d515 5fbe 043b 4a3e 2ed1 ebbe a02f 143f
000002c0: eaff 0b3e aa7c a23d 441c b33e d868 00be
000002d0: d915 2f3f 5c6a 1bbe 93be 3bbf 57a2 02bf
000002e0: cc30 24be 6274 933e ed12 27bf 834f 163f
000002f0: 9895 0abf 2940 d2be 28c8 2dbf 0516 453f
-0.3758649 0.373259 0.47412524 -0.081394136 -0.25135332 0.17823252 -0.38036335 0.38916475
0.32169873 -0.0972957 0.26531506 -0.20141286 0.5757611 -0.13578896 -0.6126321 -0.48408034
-0.19855717 0.2216921 -0.41884664 0.4797492 -0.407558 -0.30567506 -0.5997334 0.63280004
0.50821114 -0.5129784 -0.48720565 0.18064323 0.15190333 -0.17759153 0.44235167 -0.56960505
-0.025932109 -0.07856134 -0.37176758 0.043132555 -0.6344612 0.1584098 0.6764768 0.43659613
0.15414335 -0.28816095 0.6183493 -0.56237024 0.5098147 0.4009475 0.57552433 -0.6873078
0.3050958 -0.31497437 -0.3652697 -0.011620963 0.20888966 -0.09498343 0.31039855 -0.31685308
-0.16913936 0.056313016 -0.25219122 0.1444936 -0.36538684 0.13103361 0.4718777 0.32106715
0.13969746 -0.2074685 0.35678235 -0.36788496 0.30296248 0.28090563 0.40100917 -0.44920737
0.4116453 -0.50133187 -0.43344244 0.27501252 0.13979761 -0.11457657 0.4024311 -0.55445457
-0.0075484747 -0.12816913 -0.34622893 -0.06137886 -0.53828275 0.17964819 0.59687936 0.35953966
0.104370505 -0.19408672 0.5984496 -0.4576894 0.4487499 0.3709255 0.5589715 -0.6397846
-0.2947036 0.3572216 0.3747881 -0.027352996 -0.2224612 0.13463934 -0.28741714 0.29443225
0.13955405 -0.054445956 0.26292616 -0.12921415 0.40374878 -0.1966181 -0.44187587 -0.29944804
-0.10764085 0.22143084 -0.39929008 0.3623069 -0.30020094 -0.26988304 -0.38063037 0.44075927
-0.40812504 0.41421312 0.41203117 -0.13400207 -0.19432265 0.19181882 -0.32443336 0.43597227
0.12513992 0.020416746 0.288496 -0.07163442 0.50496787 -0.15145497 -0.5534749 -0.3828773
-0.12529786 0.2327072 -0.49313802 0.4519058 -0.3685548 -0.3520204 -0.5613371 0.58692324
-0.4322153 0.4293916 0.48889208 -0.091262035 -0.2645007 0.15990698 -0.36129943 0.43280554
0.34785846 -0.06255168 0.28335944 -0.22637261 0.66252613 -0.13139766 -0.6221298 -0.55388904
-0.16690257 0.20002078 -0.4534397 0.5495162 -0.43419454 -0.38661674 -0.67838174 0.6919721
-0.5080398 0.5539207 0.52137005 -0.1871625 -0.21785672 0.19749075 -0.4605803 0.5788517
0.13671842 0.07933934 0.34982502 -0.12539995 0.6839271 -0.15177292 -0.7333767 -0.5102896
-0.1603424 0.2879973 -0.65263253 0.58715075 -0.5413451 -0.41064575 -0.6788354 0.76986724

blocks.0.sa.heads.1.value.weight f4 [8, 24]
00000000: 5976 613d 5dd3 8aba 0c32 373e 4631 c4bb
00000010: ab80 a23c 8118 1ebd 34db febd e1da b2bd
00000020: 905b b0bd 3714 3c3b 2894 6abd 07ae 9abc
00000030: 3731 773a fd50 45bd 1818 553d 4d01 e03d
00000040: 4d3e 903d 40fd 02be 71d4 9dbd 38f1 fb3d
00000050: daee 093d 64d7 263d ee0b 8bbd 9738 63bd
00000060: 6564 053d 8a4b a23b a741 d93d 2b83 443b
00000070: 17ff c63c b144 14be 3f22 403e 7f69 1a3c
00000080: 4ee5 38bd 4f2e 39bd 4094 d3bc 5491 a7bc
00000090: 2bdf 43bd f377 86bd fb91 dabc 7715 4d3d
000000a0: a1c2 953c 70d8 a7bc 5774 1dbe fcd0 503d
000000b0: 6efa e0bc 6f7c 51bc ad1c 7c3d a38d d43d
000000c0: 15f2 18bd 2ad2 6bbd 93a6 86bd fc2b 663d
000000d0: 7d8b 5d3d 05bd fd3d d947 45bd e200 d0bd
000000e0: 5ead a53b 3214 2ebd 6ba9 423d 463e 19bd
000000f0: 946c 103c 7c55 24bc 73b1 f03d 9cb3 963d
00000100: 4a28 48bd 7f80 86bd 526d ef3c 0742 673d
00000110: cfda b63d 3c05 2bbc 0dba fabd 8fe1 3f3c
00000120: a97a c63c ad73 7a3d 083e 9c3c c319 403d
00000130: 3275 083d c79b 053c 6cad 973c d631 80bd
00000140: 61eb 6e3d 4566 57bc 0cf0 523c c680 3bbe
00000150: e213 703d a921 b03d a999 6e3b e837 94bd
00000160: f1ef 07bd 1965 e1bd 0067 103d 3c3b 5b3d
00000170: e6f7 953d 52cc 57bc 2554 ccbc 449b c93c
00000180: b1bc 20be 6626 babc 91af 3cbd c6a7 9d3d
00000190: 368c 47be 1d1a 803d 057f 143c ab2e 98bd
000001a0: 2615 34bd 404b 2b3c 7b90 df3c 3c2d a1bd
000001b0: 91e6 3bbc dcb2 ed3c d626 8cbd 0447 f73d
000001c0: d338 953d 11e1 90bd 0279 75bc f9fe 673b
000001d0: 3b1e c43c 6a2e 10ba 9e02 e43d 36ff 0e3e
000001e0: f841 ef3c 99a6 19bd 3a96 473c 5c97 d7bc
000001f0: 4b1b e8bc b83e 8bbd 13fb 063e d7c5 abbc
00000200: 973c bf3d b81d 6ebb 8a5e 63bc b23c bcbd
00000210: b08f da3c 1830 443a 30cb 2abd 0703 82bd
00000220: f813 583c 7a60 383d 50fd 6a3d 5ce3 0ebd
00000230: 7297 8c3d b3bb 15bc 0779 05bc 755f 133d
00000240: 378b 55bc 3354 4abe 32f0 dc3b 082a 70bd
00000250: d124 aabc 44ee 7f3c 6ca4 ea3d a17b 68bd
00000260: 5cf8 2a3d db14 e7bc 5dad 853d 158a 183e
00000270: f925 9a3c 5c8e 94bd 18cb 80ba d194 8ebb
00000280: 2952 a6bb d5b5 af3d e915 f7bc 9fc1 d13d
00000290: 5be0 af3d f7a5 843d 516a d0bd 8832 c83d
000002a0: 4898 19bc b214 963d 20a6 343d 5275 333d
000002b0: aabc b83d 22b0 09bc 8be8 923d 3341 023d
000002c0: c84c 9f3c ef2f 52bd eaf9 0d3d d6b7 83bd
000002d0: 9e35 993d 24d0 2fbc f142 213c fb98 fcbc
000002e0: 9371 b1bd 6a86 55bd 691b 05bd 2f0b 903d
000002f0: 66fe 95bd d0f6 f5bc 65c9 07bd 8ba1 cbbb
0.055044506 -0.0010591556 0.17890185 -0.005987319 0.019836744 -0.038597587 -0.124441534 -0.08733154
-0.08611214 0.0028698572 -0.0572702 -0.01888181 0.0009429636 -0.04817294 0.05202493 0.10937748
0.07043133 -0.1279192 -0.077065356 0.12301868 0.033675052 0.040732756 -0.06789385 -0.05547389
0.032566447 0.0049528526 0.10608225 0.0029985409 0.024291558 -0.14479329 0.18763064 0.009424566
-0.045140557 -0.04521018 -0.025827527 -0.02045504 -0.04782025 -0.06565847 -0.026680937 0.0500693
0.018281283 -0.020488948 -0.15376411 0.050980553 -0.027463164 -0.012786015 0.061550785 0.103785776
-0.037340242 -0.057573475 -0.0657474 0.05619429 0.054088105 0.12389568 -0.048164222 -0.101564184
0.0050560674 -0.04249973 0.04752485 -0.037412904 0.00881495 -0.010030147 0.11752596 0.073584765
-0.048866548 -0.065674774 0.029226933 0.056459453 0.08928453 -0.01043826 -0.122425176 0.011711492
0.02422841 0.061145473 0.019072548 0.04689957 0.03331489 0.008154816 0.018515311 -0.062595055
0.058329944 -0.013146942 0.012874614 -0.18310842 0.05861271 0.0860017 0.0036407507 -0.07237226
-0.03318781 -0.11005611 0.03525448 0.053523287 0.073226735 -0.013171272 -0.024942467 0.02461017
-0.1569698 -0.022723388 -0.04606587 0.07698016 -0.1948708 0.06254981 0.009063487 -0.07430776
-0.04396548 0.010454953 0.027290573 -0.07869956 -0.0114685455 0.02901595 -0.06843345 0.12074092
0.07286229 -0.07074178 -0.014982464 0.0035399778 0.023940196 -0.00055000803 0.11133312 0.13964543
0.029206261 -0.037512396 0.012181813 -0.026317291 -0.028333327 -0.06799072 0.13181715 -0.02096836
0.093377285 -0.0036333632 -0.01387752 -0.09191264 0.026679844 0.0007483973 -0.04169768 -0.06348234
0.013188355 0.045013882 0.057370484 -0.034884796 0.068648234 -0.009138989 -0.008146531 0.035979707
-0.01303368 -0.19758682 0.0067425007 -0.058633834 -0.020769509 0.015620772 0.11457142 -0.056758527
0.04174076 -0.028208187 0.06527207 0.14896424 0.018816935 -0.072537154 -0.0009826152 -0.0043512364
-0.005075712 0.085796036 -0.030161815 0.102420084 0.08587714 0.06476968 -0.10176528 0.09775263
-0.009374686 0.07328166 0.04410374 0.043813057 0.0902036 -0.00840381 0.0717326 0.03180046
0.019445792 -0.051315244 0.034662165 -0.06431548 0.0748093 -0.010730777 0.00984262 -0.030834666
-0.08664241 -0.05213014 -0.032496843 0.07033383 -0.07323913 -0.030024916 -0.03315105 -0.006214326
