saved_models/Original_model.pt (torch, 140698 bytes, 42 tensors)

token_embedding_table.weight f4 [15, 32]
-0.18072972 0.07830069 0.009235501 -0.047431223 -0.17115162 0.17316113 0.17154244 0.18851857
-0.030382263 -0.32897976 0.17298186 -0.059458826 0.15316926 -0.016168643 -0.05600296 0.04193989
-0.06391438 -0.0056203534 0.0027688495 -0.11207134 0.0776911 0.15873145 0.08481569 -0.2284559
0.13841838 -0.003232687 0.0754716 -0.112041004 -0.05229363 -0.06809556 -0.1479014 0.13860872
0.084013276 0.22830078 0.24093601 0.10879058 0.19002382 -0.22581153 0.050140314 -0.12797315
0.14177026 0.05983008 -0.0972325 -0.14485595 0.045590922 -0.17282246 -0.20226054 0.1974704
-0.15434645 0.05812976 0.026128322 -0.10749215 0.1898298 0.003457511 -0.11376321 0.024655046
-0.011155844 0.15687196 0.0044925814 0.020461474 -0.13197635 -0.02812595 -0.07126107 -0.20345573
-0.098020665 -0.101094045 -0.18530692 0.010881478 -0.16458927 -0.02222048 0.10672418 0.08853839
-0.03674137 0.051699582 -0.18107797 0.029084075 0.051079426 0.06142253 -0.05047197 -0.30553347
-0.07119266 0.12542683 0.16814686 0.04591593 -0.03404122 -0.042944722 0.1588725 -0.0010268849
0.045957506 0.26094988 0.17136197 0.0016019657 0.04750151 0.053038664 -0.07029639 -0.06847848
0.006624776 -0.06454338 -0.118398786 0.05971296 0.17000748 -0.013352293 -0.0027011805 -0.08940271
-0.1166182 0.0982111 -0.20883048 0.19698097 -0.12912323 0.07840744 0.06490481 0.042187773
0.04773818 -0.1566838 0.12001459 -0.038781695 -0.09743721 0.11799849 0.061306074 0.102292635
0.17638311 0.0304413 -0.072354265 0.0007859847 0.17734265 0.16225784 -0.15770972 0.066753626
0.01443876 -0.057405666 -0.02232256 0.07563476 -0.055842955 0.16626176 -0.10524309 0.07076946
-0.068658955 0.18824881 -0.09603079 0.29950005 0.08794553 0.010092497 0.040529344 -0.016591521
-0.05786977 -0.060290582 -0.017667511 0.09486217 -0.040968124 0.22469999 0.17470677 0.03216139
-0.19962455 -0.13089466 -0.08566532 0.05012568 0.023019282 -0.10217862 -0.099221244 -0.12706825
0.022908114 -0.045584623 -0.09335846 0.018057063 0.007604583 0.14999203 -0.10769392 -0.060788043
0.059054945 0.05921864 0.005744746 0.16399857 0.21213344 0.04311135 -0.2702019 -0.23271938
0.070909955 0.05256973 -0.08765641 0.100315966 -0.022010554 0.03239125 0.120142326 -0.06407997
0.0224186 -0.025943015 -0.20188622 0.07113914 0.106497 -0.1269607 -0.14949976 0.018662916
0.08570914 -0.14138083 -0.12023679 -0.03595837 0.16903505 -0.0062152618 -0.17173156 -0.1688501
0.08073679 -0.02626919 0.121635534 -0.012744262 -0.03417449 0.05227849 -0.17290106 -0.06365881
0.22195706 -0.0077279406 -0.07163442 0.1853992 0.043048494 -0.14600967 -0.040259246 0.14812376
0.21963885 -0.027063662 -0.14194365 0.02634836 0.114218205 0.06183043 0.03802449 -0.0072629633
-0.0073984256 -0.14698896 0.06596403 -0.046238028 -0.14525233 0.05371461 -0.040514614 0.16114116
0.072309904 0.036313288 0.1644243 -0.0063712248 0.046411306 -0.012180137 0.010395757 -0.16396143
0.100837156 0.15314436 -0.20461358 0.12052711 0.10246608 -0.10531904 -0.015622197 -0.022012059
-0.20888112 -0.11711814 0.059569106 -0.013265473 -0.1771682 -0.035525005 0.22790706 -0.05992589
00000000: 3611 39be 1d5c a03d 8050 173c 3e47 42bd
00000010: 5f42 2fbe 2751 313e d2a8 2f3e 030b 413e
00000020: 39e4 f8bc 0970 a8be 2822 313e 198b 73bd
00000030: 67d8 1c3e 1a74 84bc 5c63 65bd 29c9 2b3d
00000040: 8be5 82bd f12a b8bb 9675 353b a985 e5bd
00000050: 831c 9f3d 7f8a 223e d9b3 ad3d 58f0 69be
00000060: 8cbd 0d3e 7ddb 53bb db90 9a3d c175 e5bd
00000070: d831 56bd af75 8bbd 7773 17be 72ef 0d3e
00000080: 270f ac3d aec7 693e eeb7 763e 98cd de3d
00000090: 9b95 423e 233b 67be ee5f 4d3d 650b 03be
000000a0: 392c 113e 6310 753d d521 c7bd 1e55 14be
000000b0: 8cbd 3a3d 5ff8 30be 631d 4fbe ae35 4a3e
000000c0: ff0c 1ebe 7919 6e3d 100b d63c d824 dcbd
000000d0: be62 423e 6997 623b b0fc e8bd 61f9 c93c
000000e0: 00c7 36bc 0ba3 203e 8136 933b d29e a73c
000000f0: cf24 07be 6468 e6bc 53f1 91bd b356 50be
00000100: 0fbf c8bd 650a cfbd 19c1 3dbe 3a48 323c
00000110: 178a 28be b907 b6bc 3592 da3d 9e53 b53d
00000120: 1e7e 16bd f1c2 533d 816c 39be ba41 ee3c
00000130: a938 513d 3196 7b3d b2bb 4ebd e26e 9cbe
00000140: 75cd 91bd e46f 003e b12e 2c3e 5812 3c3d
00000150: ce6e 0bbd cee6 2fbd 79af 223e 8a98 86ba
00000160: f03d 3c3d 399b 853e 8379 2f3e 0df9 d13a
00000170: f190 423d 123f 593d 8ef7 8fbd 723e 8cbd
00000180: a614 d93b 522f 84bd 107b f2bd 9495 743d
00000190: 7116 2e3e 93c3 5abc 4a06 31bb c518 b7bd
000001a0: 86d5 eebd e722 c93d a8d7 55be 61b5 493e
000001b0: e138 04be 1494 a03d d0ec 843d 16cd 2c3d
000001c0: 1c89 433d b871 20be 36ca f53d 8ed9 1ebd
000001d0: 298d c7bd 31a9 f13d 141c 7b3d cd7e d13d
000001e0: c69d 343e 0860 f93c 792e 94bd 8a0a 4e3a
000001f0: 5099 353e eb26 263e a87e 21be 20b6 883d
00000200: 8c90 6c3c 3422 6bbd cddd b6bc 66e6 9a3d
00000210: 95bb 64bd 8640 2a3e b089 d7bd 94ef 903d
00000220: 119d 8cbd 4cc4 403e caab c4bd 1258 993e
00000230: c91c b43d 005b 253c 1902 263d f1ea 87bc
00000240: da08 6dbd 42f3 76bd 75bb 90bc 1947 c23d
00000250: 31ce 27bd c117 663e 55e6 323e a9bb 033d
00000260: 616a 4cbe 4009 06be 4d71 afbd 9650 4d3d
00000270: ef92 bc3c 0643 d1bd 8234 cbbd 2e1e 02be
00000280: cca9 bb3c f1b6 3abd b832 bfbd 68ec 933c
00000290: de2f f93b 8397 193e a18e dcbd e2fc 78bd
000002a0: 99e3 713d 3f8f 723d 6c3e bc3b 3eef 273e
000002b0: 8239 593e 8795 303d e757 8abe fd4d 6ebe
000002c0: 3d39 913d 5b53 573d 3485 b3bd 7572 cd3d
000002d0: 7a4f b4bc b0ac 043d 2e0d f63d 5c3c 83bd
000002e0: 36a7 b73c 7286 d4bc 43bb 4ebe 66b1 913d
000002f0: 191b da3d fc01 02be 7716 19be f9e2 983c
00000300: 4688 af3d 23c6 10be b53e f6bd 1549 13bd
00000310: 8617 2d3e 65a9 cbbb 66da 2fbe 0ae7 2cbe
00000320: 5559 a53d 7c32 d7bc 0d1c f93d 4fcd 50bc
00000330: 8dfa 0bbd f821 563d fa0c 31be 8d5f 82bd
00000340: b648 633e aa3a fdbb 11b5 92bd 4ad9 3d3e
00000350: 9e53 303d 8f83 15be e1e6 24bd c1ad 173e
00000360: 02e9 603e 9db4 ddbc ad59 11be 84d8 d73c
00000370: 3ceb e93d e841 7d3d 91bf 1b3d 27fe edbb
00000380: 7e6e f2bb 4684 16be 2618 873d 1664 3dbd
00000390: 07bd 14be da03 5c3d a7f2 25bd 3002 253e
000003a0: 3717 943d 3ebd 143d d85e 283e b5c5 d0bb
000003b0: c819 3e3d 338f 47bc f752 2a3c 81e5 27be
000003c0: b683 ce3d e0d1 1c3e 3986 51be ebd6 f63d
000003d0: bcd9 d13d 82b1 d7bd 3ef4 7fbc a252 b4bc
000003e0: efe4 55be a3db efbd bcfe 733d 6d57 59bc
000003f0: 956b 35be ab82 11bd 7860 693e da74 75bd

position_embedding_table.weight f4 [32, 32]
-0.15449606 0.2099723 0.006299471 -0.057318863 0.027114384 -0.040007647 -0.06429359 -0.108053684
-0.23470859 0.018775573 -0.06263236 -0.029802864 0.101210214 0.05662589 -0.037402995 -0.0106879715
0.013910608 -0.061147567 -0.007770814 -0.04534361 0.24458846 0.059955075 -0.14097676 0.069857195
0.038196847 0.06687951 0.03050942 0.16063881 -0.0019993244 -0.04096565 0.07413533 -0.035109464
-0.088395424 0.15985407 0.023923106 0.063549146 -0.018919406 0.03062651 -0.1186326 -0.06658388
-0.17217444 -0.048739348 -0.06354859 -0.013555144 0.11419891 -0.009780018 -0.009355383 0.06622555
-0.07175075 -0.15373813 -0.06917927 -0.040282782 0.25510934 -0.008677859 -0.09011544 -0.027987346
0.053456277 0.10952059 0.011864019 0.12404965 -0.01792822 -0.03301363 0.08924797 -0.0844748
-0.06405896 0.12559824 0.015880296 0.07792348 -0.017360184 -0.023431253 -0.095064975 -0.06740855
-0.12607212 -0.023706635 -0.06616699 -0.031511955 0.063156866 -0.017354164 -0.014607618 0.060902726
-0.051984668 -0.083171085 -0.12909408 -0.06818656 0.17735435 0.012140058 -0.07370118 -0.008456085
0.045068286 0.07688208 -0.026698358 0.09939208 -0.012603874 -0.021067582 0.1244561 -0.11060886
-0.07687965 0.048480034 -0.049326926 0.09347591 0.007845492 -0.03925892 -0.03671654 -0.04903177
-0.1275635 0.031518485 -0.06291371 0.0169197 0.043779496 -0.06597911 -0.06572574 -0.021167332
-0.00581615 -0.03567349 -0.052086137 -0.04694587 0.16760735 0.091623925 -0.054042127 0.029927285
0.03722275 0.038383897 -0.041222982 0.10334721 -0.027739815 -0.052591782 0.13615504 -0.052855346
-0.0499222 0.07714181 0.007527246 0.116061814 0.011815403 -0.060849965 -0.06191844 -0.054980956
-0.10648393 0.036047902 -0.06590228 -0.02884187 0.062123597 -0.035408244 -0.06230033 0.036536485
-0.022658324 -0.026496088 -0.092658676 -0.0880887 0.112706624 0.047165394 -0.040374964 0.059713818
0.0055860737 0.03866237 -0.03678027 0.10152944 -0.0039012455 -0.06491356 0.13351151 -0.07943841
-0.07073727 -0.00049409876 -0.0051998817 0.06891794 0.009220556 -0.049852647 -0.009581054 -0.03922281
-0.1147867 0.059243232 -0.058873396 0.022136757 0.025836758 -0.0545695 -0.05551586 -0.002592951
0.018504208 -0.02263341 0.0015016762 -0.06517628 0.13304253 0.073720016 -0.043409687 0.07993033
0.0031333966 -0.022903401 -0.06428039 0.086161755 -0.02411907 -0.08644831 0.08387841 -0.02999184
-0.033704422 -0.010968222 0.021383662 0.1423859 0.023118297 -0.04623637 -0.03129184 -0.029015204
-0.06496925 0.07487543 -0.05505591 -0.0041773967 0.022590684 -0.022616712 -0.024446364 -0.02188257
0.034450725 -0.006443772 -0.040114798 -0.09445704 0.10434402 0.0714123 -0.0059810188 0.061443016
-0.0074933786 0.004900024 -0.05513731 0.09369656 -0.011714423 -0.06751832 0.10137399 -0.060916353
-0.07801923 -0.00619767 -0.059615694 0.06929128 -0.014612506 -0.06294035 -0.002236199 -0.04967916
-0.09293377 0.069549926 -0.04060894 -0.005586961 0.012034574 0.0006504826 -0.05889718 -0.02162485
0.07953149 0.028020844 -0.012319298 -0.06040588 0.080176584 0.07483885 -0.028787166 0.050331376
0.0016417177 -0.03288956 -0.08399376 0.05809987 -0.04909223 -0.0604283 0.094196156 -0.033410657
00000000: 3734 1ebe fb02 573e cb6b ce3b 2fc7 6abd
00000010: fc1e de3c 0fdf 23bd 5cac 83bd 404b ddbd
00000020: 7357 70be 3bcf 993c 6545 80bd 2325 f4bc
00000030: 4d47 cf3d 8df0 673d e233 19bd 9a1c 2fbc
00000040: 52e9 633c df75 7abd 50a2 febb 39ba 39bd
00000050: 6675 7a3e 7493 753d 365c 10be 4a11 8f3d
00000060: 4c74 1c3d 20f8 883d e4ee f93c 807e 243e
00000070: 1907 03bb 99cb 27bd 44d4 973d f1ce 0fbd
00000080: a908 b5bd c9b0 233e 64fa c33c 0e26 823d
00000090: dffc 9abc 72e4 fa3c a6f5 f2bd 215d 88bd
000000a0: 7f4e 30be e9a2 47bd c325 82bd 6516 5ebc
000000b0: 1ee1 e93d 5e3c 20bc 5247 19bc 43a1 873d
000000c0: 0ff2 92bd 876d 1dbe dcad 8dbd 8fff 24bd
000000d0: b19d 823e 942d 0ebc 728e b8bd b845 e5bc
000000e0: f8f4 5a3d 554c e03d 4d61 423c be0d fe3d
000000f0: 34de 92bc 4d39 07bd a4c7 b63d 2001 adbd
00000100: 5831 83bd d39c 003e 6517 823c 5896 9f3d
00000110: f236 8ebc e6f2 bfbc 6db1 c2bd 7e0d 8abd
00000120: 0d19 01be 6b34 c2bc 8f82 87bd ae12 01bd
00000130: 6358 813d 522a 8ebc ca54 6fbc 2375 793d
00000140: e0ed 54bd 9a55 aabd 3d31 04be 65a5 8bbd
00000150: 619c 353e 18e7 463c a5f0 96bd 648b 0abc
00000160: 8699 383d 5a74 9d3d 84b6 dabc 138e cb3d
00000170: 7b80 4ebc ec95 acbc d7e2 fe3d e686 e2bd
00000180: 1473 9dbd 0093 463d 080b 4abd 4c70 bf3d
00000190: 618a 003c f6cd 20bd 1564 16bd 8ad5 48bd
000001a0: 02a0 02be 8719 013d e7d8 80bd 2f9b 8a3c
000001b0: 2152 333d 0e20 87bd 379b 86bd 1d67 adbc
000001c0: 6795 bebb 5e1e 12bd 4658 55bd 504a 40bd
000001d0: 43a1 2b3e 53a5 bb3d 475b 5dbd 112a f53c
000001e0: e276 183d 6f38 1d3d 6ed9 28bd b4a7 d33d
000001f0: 9c3e e3bc 7b6a 57bd 3a6c 0b3e d97e 58bd
00000200: 397b 4cbd 86fc 9d3d 1ea7 f63b d1b1 ed3d
00000210: 6495 413c d03d 79bd 319e 7dbd b633 61bd
00000220: 3f14 dabd f7a6 133d c6f7 86bd c945 ecbc
00000230: 5075 7e3d 3c08 11bd a12e 7fbd 48a7 153d
00000240: f39d b9bc 530e d9bc d5c3 bdbd d967 b4bd
00000250: bbd2 e63d 8030 413d 3860 25bd 7a96 743d
00000260: 620b b73b 6f5c 1e3d e9a6 16bd abee cf3d
00000270: 0aac 7fbb 67f1 84bd 3eb7 083e 9bb0 a2bd
00000280: b4de 90bd 6886 01ba c563 aabb d924 8d3d
00000290: d111 173c 4a32 4cbd daf9 1cbc 19a8 20bd
000002a0: 4a15 ebbd 08a9 723d 3b25 71bd 2558 b53c
000002b0: 9ca7 d33c 4584 5fbd 9964 63bd 80ee 29bb
000002c0: 2396 973c b369 b9bc e4d3 c43a 247b 85bd
000002d0: 4d3c 083e 85fa 963d 5bce 31bd 83b2 a33d
000002e0: ac59 4d3b ea9f bbbc 70a5 83bd 9375 b03d
000002f0: 5b95 c5bc d00b b1bd 72c8 ab3d 72b1 f5bc
00000300: a60d 0abd 0fb4 33bc ca2c af3c 9ccd 113e
00000310: 9562 bd3c 5962 3dbd df2b 00bd 4bb1 edbc
00000320: 990e 85bd 4a58 993d 4e82 61bd 8be2 88bb
00000330: 1910 b93c af46 b9bc be43 c8bc 1343 b3bc
00000340: 341c 0d3d 4726 d3bb 6a4f 24bd b172 c1bd
00000350: 51b2 d53d 9d40 923d 6cfc c3bb acab 7b3d
00000360: 048b f5bb 6190 a03b a9d7 61bd fbe3 bf3d
00000370: daed 3fbc 0c47 8abd 2b9d cf3d 6d83 79bd
00000380: 8cc8 9fbd d315 cbbb 962f 74bd 96e8 8d3d
00000390: 4b69 6fbc dfe6 80bd 328d 12bb 607c 4bbd
000003a0: 0f54 bebd 3170 8e3d 8f55 26bd d312 b7bb
000003b0: a92c 453c 2685 2a3a 2b3e 71bd 9926 b1bc
000003c0: 68e1 a23d f88b e53c e2d6 49bc 286c 77bd
000003d0: 9f33 a43d 1c45 993d 10d3 ebbc 4628 4e3d
000003e0: e82e d73a 34b7 06bd ec04 acbd 21fa 6d3d
000003f0: ef14 49bd aa83 77bd eae9 c03d 9dd9 08bd

blocks.0.sa.heads.0.tril f4 [32, 32]
1.0 0.0 0.0 0.0 0.0 0.0 0.0 0.0
0.0 0.0 0.0 0.0 0.0 0.0 0.0 0.0
0.0 0.0 0.0 0.0 0.0 0.0 0.0 0.0
0.0 0.0 0.0 0.0 0.0 0.0 0.0 0.0
1.0 1.0 0.0 0.0 0.0 0.0 0.0 0.0
0.0 0.0 0.0 0.0 0.0 0.0 0.0 0.0
0.0 0.0 0.0 0.0 0.0 0.0 0.0 0.0
0.0 0.0 0.0 0.0 0.0 0.0 0.0 0.0
1.0 1.0 1.0 0.0 0.0 0.0 0.0 0.0
0.0 0.0 0.0 0.0 0.0 0.0 0.0 0.0
0.0 0.0 0.0 0.0 0.0 0.0 0.0 0.0
0.0 0.0 0.0 0.0 0.0 0.0 0.0 0.0
1.0 1.0 1.0 1.0 0.0 0.0 0.0 0.0
0.0 0.0 0.0 0.0 0.0 0.0 0.0 0.0
0.0 0.0 0.0 0.0 0.0 0.0 0.0 0.0
0.0 0.0 0.0 0.0 0.0 0.0 0.0 0.0
1.0 1.0 1.0 1.0 1.0 0.0 0.0 0.0
0.0 0.0 0.0 0.0 0.0 0.0 0.0 0.0
0.0 0.0 0.0 0.0 0.0 0.0 0.0 0.0
0.0 0.0 0.0 0.0 0.0 0.0 0.0 0.0
1.0 1.0 1.0 1.0 1.0 1.0 0.0 0.0
0.0 0.0 0.0 0.0 0.0 0.0 0.0 0.0
0.0 0.0 0.0 0.0 0.0 0.0 0.0 0.0
0.0 0.0 0.0 0.0 0.0 0.0 0.0 0.0
1.0 1.0 1.0 1.0 1.0 1.0 1.0 0.0
0.0 0.0 0.0 0.0 0.0 0.0 0.0 0.0
0.0 0.0 0.0 0.0 0.0 0.0 0.0 0.0
0.0 0.0 0.0 0.0 0.0 0.0 0.0 0.0
1.0 1.0 1.0 1.0 1.0 1.0 1.0 1.0
0.0 0.0 0.0 0.0 0.0 0.0 0.0 0.0
0.0 0.0 0.0 0.0 0.0 0.0 0.0 0.0
0.0 0.0 0.0 0.0 0.0 0.0 0.0 0.0
00000000: 0000 803f 0000 0000 0000 0000 0000 0000
00000010: 0000 0000 0000 0000 0000 0000 0000 0000
00000020: 0000 0000 0000 0000 0000 0000 0000 0000
00000030: 0000 0000 0000 0000 0000 0000 0000 0000
00000040: 0000 0000 0000 0000 0000 0000 0000 0000
00000050: 0000 0000 0000 0000 0000 0000 0000 0000
00000060: 0000 0000 0000 0000 0000 0000 0000 0000
00000070: 0000 0000 0000 0000 0000 0000 0000 0000
00000080: 0000 803f 0000 803f 0000 0000 0000 0000
00000090: 0000 0000 0000 0000 0000 0000 0000 0000
000000a0: 0000 0000 0000 0000 0000 0000 0000 0000
000000b0: 0000 0000 0000 0000 0000 0000 0000 0000
000000c0: 0000 0000 0000 0000 0000 0000 0000 0000
000000d0: 0000 0000 0000 0000 0000 0000 0000 0000
000000e0: 0000 0000 0000 0000 0000 0000 0000 0000
000000f0: 0000 0000 0000 0000 0000 0000 0000 0000
00000100: 0000 803f 0000 803f 0000 803f 0000 0000
00000110: 0000 0000 0000 0000 0000 0000 0000 0000
00000120: 0000 0000 0000 0000 0000 0000 0000 0000
00000130: 0000 0000 0000 0000 0000 0000 0000 0000
00000140: 0000 0000 0000 0000 0000 0000 0000 0000
00000150: 0000 0000 0000 0000 0000 0000 0000 0000
00000160: 0000 0000 0000 0000 0000 0000 0000 0000
00000170: 0000 0000 0000 0000 0000 0000 0000 0000
00000180: 0000 803f 0000 803f 0000 803f 0000 803f
00000190: 0000 0000 0000 0000 0000 0000 0000 0000
000001a0: 0000 0000 0000 0000 0000 0000 0000 0000
000001b0: 0000 0000 0000 0000 0000 0000 0000 0000
000001c0: 0000 0000 0000 0000 0000 0000 0000 0000
000001d0: 0000 0000 0000 0000 0000 0000 0000 0000
000001e0: 0000 0000 0000 0000 0000 0000 0000 0000
000001f0: 0000 0000 0000 0000 0000 0000 0000 0000
00000200: 0000 803f 0000 803f 0000 803f 0000 803f
00000210: 0000 803f 0000 0000 0000 0000 0000 0000
00000220: 0000 0000 0000 0000 0000 0000 0000 0000
00000230: 0000 0000 0000 0000 0000 0000 0000 0000
00000240: 0000 0000 0000 0000 0000 0000 0000 0000
00000250: 0000 0000 0000 0000 0000 0000 0000 0000
00000260: 0000 0000 0000 0000 0000 0000 0000 0000
00000270: 0000 0000 0000 0000 0000 0000 0000 0000
00000280: 0000 803f 0000 803f 0000 803f 0000 803f
00000290: 0000 803f 0000 803f 0000 0000 0000 0000
000002a0: 0000 0000 0000 0000 0000 0000 0000 0000
000002b0: 0000 0000 0000 0000 0000 0000 0000 0000
000002c0: 0000 0000 0000 0000 0000 0000 0000 0000
000002d0: 0000 0000 0000 0000 0000 0000 0000 0000
000002e0: 0000 0000 0000 0000 0000 0000 0000 0000
000002f0: 0000 0000 0000 0000 0000 0000 0000 0000
00000300: 0000 803f 0000 803f 0000 803f 0000 803f
00000310: 0000 803f 0000 803f 0000 803f 0000 0000
00000320: 0000 0000 0000 0000 0000 0000 0000 0000
00000330: 0000 0000 0000 0000 0000 0000 0000 0000
00000340: 0000 0000 0000 0000 0000 0000 0000 0000
00000350: 0000 0000 0000 0000 0000 0000 0000 0000
00000360: 0000 0000 0000 0000 0000 0000 0000 0000
00000370: 0000 0000 0000 0000 0000 0000 0000 0000
00000380: 0000 803f 0000 803f 0000 803f 0000 803f
00000390: 0000 803f 0000 803f 0000 803f 0000 803f
000003a0: 0000 0000 0000 0000 0000 0000 0000 0000
000003b0: 0000 0000 0000 0000 0000 0000 0000 0000
000003c0: 0000 0000 0000 0000 0000 0000 0000 0000
000003d0: 0000 0000 0000 0000 0000 0000 0000 0000
000003e0: 0000 0000 0000 0000 0000 0000 0000 0000
000003f0: 0000 0000 0000 0000 0000 0000 0000 0000

blocks.0.sa.heads.0.key.weight f4 [16, 32]
-0.16839553 0.25959045 -0.0070317127 -0.23129682 0.014452916 0.1684625 -0.06453817 0.012691786
-0.030575708 -0.0525027 0.006252815 -0.044164196 0.05101983 -0.043395676 0.04835421 0.08790867
-0.103822924 0.012990526 -0.059316557 0.090351336 -0.08031351 0.06087176 -0.08457489 -0.1056756
0.067749865 0.044859417 0.13868493 -0.105622545 0.04916344 -0.05941027 -0.00058890914 -0.029386945
0.113151476 -0.07952652 0.06220276 0.023172893 -0.012560086 -0.045526598 0.032026198 -0.02380268
0.02925667 -0.007248149 0.009187417 0.03285606 -0.0092619 0.075103424 0.019027919 -0.0375114
0.021136897 0.014634844 -0.011744159 0.009116909 0.05287924 -0.08821598 0.034900688 -0.014569561
-0.06551591 -0.015679138 -0.023161897 0.07408517 0.024345543 0.05874351 -0.026924977 -0.019258937
-0.12821476 0.20552249 -0.046391454 -0.21988182 -0.017472416 0.15584604 -0.09229618 0.042927437
-0.05090837 -0.029044595 0.0034359335 -0.05227695 0.036259487 -0.028982092 0.034593835 0.07938704
-0.077625394 -0.038668413 -0.08839701 0.059325084 -0.07076745 0.035488 -0.057295717 -0.07096223
0.06165137 0.04831542 0.12605207 -0.05223936 0.022260359 0.019402085 0.012632385 -0.015169799
0.06251669 0.050093308 0.074105695 0.10207642 0.08651863 -0.1358408 -0.020610442 -0.13273054
0.009865736 0.07102196 -0.07510886 -0.0625398 0.012288655 -0.06580005 -0.03958522 0.047661155
-0.058051214 -0.0033993507 0.014703742 -0.034410886 0.14537205 0.015010203 -0.07327572 0.025200902
-0.0020429834 0.08988075 -0.07128524 0.073911935 -0.009443715 0.018560262 0.09433772 -0.10312789
0.14946936 -0.13506392 0.081850074 0.30341855 0.00054181356 -0.062112484 0.19523112 0.06488938
0.08958888 -0.08028815 -0.002622419 0.005777517 0.04398834 -0.07498066 -0.07769276 0.004102442
0.0022732108 0.027158413 0.07772843 -0.12736572 0.052106854 -0.014663454 0.1174421 -0.076490484
-0.05414412 -0.080614634 -0.06599642 -0.063318975 -0.035116386 -0.09513617 -0.18797491 0.029236088
-0.100723945 0.13009477 -0.03851124 -0.16005424 0.0038699033 0.08668219 -0.062153284 0.016346257
-0.060141493 0.003668422 0.031198222 -0.059785396 0.009996129 -0.008854941 0.04158375 0.00958839
-0.04498507 -0.0365638 -0.06502832 0.05596004 -0.07105982 0.02319153 -0.007390235 -0.0056227893
0.054268908 0.028705675 0.08671168 -0.0062185396 0.0021301738 -0.01593695 0.02936542 0.016800953
0.08161826 -0.11220588 -0.07320978 -0.0114181265 0.012898638 -0.08741078 -0.019975675 0.012248198
-0.008563617 0.037908208 -0.0032776298 0.004900916 -0.08855909 0.07068407 0.017627908 -0.120436944
0.12052384 0.095163055 -0.03476666 0.046167724 -0.024697773 -0.04152853 0.0027018294 0.1387871
-0.05029865 -0.05423179 -0.08588262 0.14486462 -0.0072546736 0.0933296 0.11894481 0.048342127
-0.038198616 -0.08625355 -0.05530941 -0.08862657 -0.07183289 0.14688098 0.009999102 0.10759948
-0.034387488 -0.06682027 0.08169136 0.028068487 -0.029985517 0.024894966 0.045479737 -0.06484099
0.042736284 -0.0045496323 0.0072199474 0.044302873 -0.119328395 0.010410266 0.07728996 -0.061257675
-0.0060489466 -0.09517439 0.041957557 -0.050121095 0.0044536972 0.048393693 -0.0907407 0.046669137
00000000: e16f 2cbe 0ae9 843e 486a e6bb 13d9 6cbe
00000010: eccb 6c3c 6f81 2c3e 972c 84bd 35f1 4f3c
00000020: e879 fabc 120d 57bd 6ae4 cc3b 84e5 34bd
00000030: 2bfa 503d aabf 31bd 100f 463d 7609 b43d
00000040: 1da1 d4bd 37d6 543c ebf5 72bd 1f0a b93d
00000050: 697b a4bd ab54 793d 9a35 adbd 736c d8bd
00000060: 71c0 8a3d 82be 373d 6c03 0e3e a250 d8bd
00000070: 9a5f 493d 2f58 73bd 0661 1aba e4bc f0bc
00000080: f6bb e73d cdde a2bd 52c8 7e3d 14d5 bd3c
00000090: d2c8 4dbc 197a 3abd e72d 033d d7fd c2bc
000000a0: afab ef3c e181 edbb d286 163c 1394 063d
000000b0: 39bf 17bc d3cf 993d 70e0 9b3c 8ea5 19bd
000000c0: 4927 ad3c fcc6 6f3c 936a 40bc 165f 153c
000000d0: e797 583d 94aa b4bd 06f4 0e3d 2bb5 6ebc
000000e0: 352d 86bd 8971 80bc 05be bdbc f7b9 973d
000000f0: 4e70 c73c 099d 703d c591 dcbc ebc4 9dbc
00000100: bb4a 03be 7d74 523e f704 3ebd b328 61be
00000110: 5022 8fbc 1b96 1f3e c805 bdbd aed4 2f3d
00000120: 4c85 50bd eeee edbc 662d 613b 5b20 56bd
00000130: d484 143d da6b edbc 44b2 0d3d ac95 a23d
00000140: 10fa 9ebd c562 1ebd 7e09 b5bd dcfe 723d
00000150: 86ee 90bd dd5b 113d eaae 6abd a554 91bd
00000160: 2686 7c3d 64e6 453d cb13 013e f0f8 55bd
00000170: 5b5b b63c 1ff1 9e3c 10f8 4e3c c08a 78bc
00000180: c008 803d a42e 4d3d bac4 973d 710d d13d
00000190: ae30 b13d da19 0bbe 3bd7 a8bc 84ea 07be
000001a0: e5a3 213c f673 913d add2 99bd de14 80bd
000001b0: 5b56 493c 2dc2 86bd 1d24 22bd 5838 433d
000001c0: 1cc7 6dbd a4c7 5ebb f7e7 703c 6ef2 0cbd
000001d0: 69dc 143e 5bed 753c 9511 96bd 1f72 ce3c
000001e0: 93e3 05bb 6613 b83d fffd 91bd 245f 973d
000001f0: d0b9 1abc b10b 983c 2234 c13d b734 d3bd
00000200: 7f0e 193e 324e 0abe 03a1 a73d ad59 9b3e
00000210: 7e08 0e3a a969 7ebd abea 473e b9e4 843d
00000220: 607a b73d 1d6e a4bd e4dc 2bbb 5351 bd3b
00000230: 1e2d 343d 768f 99bd 621d 9fbd c76d 863b
00000240: 26fa 143b 527b de3c 1530 9f3d 296c 02be
00000250: ff6d 553d fc3e 70bc 7c85 f03d 0ba7 9cbd
00000260: 3ac6 5dbd 4919 a5bd 2229 87bd 61ad 81bd
00000270: 33d6 0fbd c1d6 c2bd 7f7c 40be 8580 ef3c
00000280: 5b48 cebd 9037 053e f6bd 1dbd 42e5 23be
00000290: 349e 7d3b 6f86 b13d 7194 7ebd 96e8 853c
000002a0: ed56 76bd e969 703b 6a93 ff3c 88e1 74bd
000002b0: cec6 233c 5114 11bc b953 2a3d 9f18 1d3c
000002c0: 4442 38bd ecc3 15bd 912d 85bd 5b36 653d
000002d0: d087 91bd 2afc bd3c c929 f2bb 603f b8bb
000002e0: 1349 5e3d 2a28 eb3c e595 b13d e4c4 cbbb
000002f0: 639a 0b3b 358e 82bc c08f f03c 27a2 893c
00000300: 7927 a73d 32cc e5bd 02ef 95bd 1813 3bbc
00000310: cf54 533c 6c04 b3bd 07a4 a3bc aaac 483c
00000320: 6a4e 0cbc a345 1b3d 81cd 56bb dd97 a03b
00000330: 785e b5bd cfc2 903d 6768 903c a5a7 f6bd
00000340: 34d5 f63d d9e4 c23d 7c67 0ebd 5e1a 3d3d
00000350: fc52 cabc d219 2abd 2d11 313b 351e 0e3e
00000360: f505 4ebd 2722 5ebd 3ae3 afbd 6457 143e
00000370: 9db8 edbb 9723 bf3d 5699 f33d 6502 463d
00000380: 2776 1cbd b4a5 b0bd 1f8c 62bd d981 b5bd
00000390: 1f1d 93bd f867 163e 46d3 233c 1e5d dc3d
000003a0: e5d9 0cbd 11d9 88bd cd4d a73d e2ef e53c
000003b0: 30a4 f5bc 87f0 cb3c f648 3a3d 5acb 84bd
000003c0: 3e0c 2f3d 1515 95bb 4f95 ec3b ee76 353d
000003d0: 7262 f4bd d28f 2a3c 334a 9e3d 54e9 7abd
000003e0: 3e36 c6bb caea c2bd b0db 2b3d c74b 4dbd
000003f0: 52f0 913b 7738 463d 43d6 b9bd 2328 3f3d

blocks.0.sa.heads.0.query.weight f4 [16, 32]
-0.104116805 0.02891002 0.06587636 -0.16213803 0.010840336 0.05501553 0.07239925 0.02513116
0.038222063 -0.21081375 0.18736295 0.0146361 0.16781017 -0.0063757505 0.00037609987 0.052483287
-0.115105405 0.029036239 0.054184686 0.029687747 -0.09866434 -0.030530956 -0.02906673 -0.20049395
0.13909084 0.08214121 0.18373269 -0.0977459 0.034929425 -0.106877886 -0.060881607 0.028566092
0.09712007 -0.018523144 -0.0013366604 0.03692052 -0.00858762 -0.020586183 -0.081021555 -0.03955271
0.02173035 0.09642824 -0.041004132 0.032774523 -0.08284748 -0.020055644 0.028771864 -0.007498538
-0.0068104933 -0.015346933 -0.043947715 -0.0176232 0.020319043 -0.039783113 -0.045105323 0.056965314
-0.13705997 -0.021023829 -0.038106363 0.06053068 0.08315481 0.10703516 0.022524748 -8.476518e-05
-0.05765986 0.017020416 0.03869193 -0.14994141 0.033425704 0.022945631 0.06949085 0.035360847
0.021116173 -0.0656606 0.11502127 -0.030389758 0.022460116 -0.011105711 0.008605265 0.053372994
-0.07901676 0.04145206 0.009353255 0.07012417 -0.10797929 -0.018002976 -0.0053158198 -0.14804155
0.115665846 0.02377639 0.21208894 -0.085471556 -0.0017249247 -0.06968466 -0.04355002 0.028911633
-0.016768483 0.025935125 -0.043620538 -0.015887033 -0.031749677 0.05149539 -0.12243085 0.008828966
-0.05490719 -0.13862203 0.032024186 0.006672604 0.06951537 -0.0137501955 0.08673643 -0.010982482
-0.010672857 -0.12641795 -0.046805397 0.03226951 0.040485438 -0.07172206 -0.009098402 -0.04950166
0.067551024 0.034466915 0.04350817 0.018464783 0.05260924 0.034420613 0.031013153 0.0150119485
-0.024537422 0.06140543 -0.042697426 0.14253345 -0.015814394 -0.065583214 -0.07558556 0.0071109356
-0.035235733 -0.23059396 -0.024423895 0.01768169 0.19450153 -0.0064278375 0.0020125555 0.015718577
-0.011554234 -0.16805221 -0.057763774 -0.099936776 0.1944102 0.057898287 0.024398612 -0.16126391
0.1317812 0.06310122 -0.1205879 0.21314758 -0.096291706 0.036904804 0.0144304205 -0.022737427
-0.07086991 0.013316001 0.011177462 -0.09749043 0.01322591 0.003926046 0.06676538 0.041536722
0.036114316 0.026181126 0.017810721 0.0013933334 -0.0454694 -0.0603623 -0.005562742 -0.00990438
-0.007101496 0.061904848 -0.03488098 -0.014902551 -0.08497862 0.045045726 0.01812351 -0.030510876
0.048809163 -0.023800677 0.08231343 -0.07355915 -0.031408526 -0.043420874 -0.0006484452 0.015335673
0.060003124 -0.11217066 0.040883835 0.038100887 0.021654522 -0.031018019 -0.037497625 -0.046222385
-0.007382169 0.30234796 -0.05365583 0.0068685915 -0.15215029 0.031909924 -0.0058332933 -0.007866497
0.08055374 0.08738002 -0.044108447 0.04069429 -0.07553375 0.018710421 0.0048401193 0.28141755
-0.20852585 -0.04992055 -0.134418 0.016345898 -0.014036791 0.072553754 0.043306857 -0.0023494137
0.05254848 -0.048620086 0.039266594 0.05745895 0.030616306 -0.014286519 0.10111023 0.054385275
0.025976382 0.14100932 -0.026084708 -0.058999464 -0.081706926 0.012835306 -0.101794966 0.01648854
0.023687037 0.06289827 0.018054483 -0.025100969 -0.01780151 0.0300951 0.03188337 0.049732648
-0.08783843 -0.04215447 -0.029194234 -0.041630834 -0.05897043 -0.006702719 -0.035404 -0.0038332967
00000000: 313b d5bd b5d4 ec3c 2fea 863d 8307 26be
00000010: aa9b 313c f757 613d 0f46 943d dddf cd3c
00000020: bd8e 1c3d 8fdf 57be 13dc 3f3e 41cc 6f3c
00000030: 6ed6 2b3e aceb d0bb 452f c539 b7f8 563d
00000040: 62bc ebbd 68dd ed3c c3f0 5d3d b833 f33c
00000050: 8810 cabd 0e1c fabc 5a1d eebc 494e 4dbe
00000060: d46d 0e3e a739 a83d 6c24 3c3e 012f c8bd
00000070: 2812 0f3d cbe2 dabd fe5e 79bd 7003 ea3c
00000080: e3e6 c63d d9bd 97bc e132 afba f939 173d
00000090: 17b3 0cbc 5ba4 a8bc a1ee a5bd 0602 22bd
000000a0: d903 b23c 2b7c c53d f3f3 27bd 943e 063d
000000b0: f1ab a9bd bc4b a4bc f9b2 eb3c 4cb6 f5bb
000000c0: 8f2a dfbb b471 7bbc 8502 34bd 875e 90bc
000000d0: 1f74 a63c 9ef3 22bd 5cc0 38bd 7654 693d
000000e0: 7359 0cbe 2a3a acbc 6b15 1cbd 05ef 773d
000000f0: 124d aa3d 4035 db3d d285 b83c f6c3 b1b8
00000100: bf2c 6cbd 666e 8b3c 6e7b 1e3d 3e8a 19be
00000110: 64e9 083d 7af8 bb3c 3851 8e3d 89d6 103d
00000120: d3fb ac3c 1179 86bd 4690 eb3d f1f3 f8bc
00000130: 47fe b73c baf4 35bc 19fd 0c3c a49d 5a3d
00000140: 8ad3 a1bd a3c9 293d 653e 193c 439d 8f3d
00000150: 3f24 ddbd fa7a 93bc 5430 aebb 3498 17be
00000160: 37e2 ec3d b4c6 c23c d82d 593e b60b afbd
00000170: de16 e2ba d5b6 8ebd 8161 32bd 17d8 ec3c
00000180: 0f5e 89bc e675 d43c 73ab 32bd 8625 82bc
00000190: f30b 02bd d4ec 523d 07bd fabd 5ea7 103c
000001a0: 5de6 60bd eff2 0dbe cb2b 033d dca5 da3b
000001b0: 135e 8e3d 8048 61bc dfa2 b13d deef 33bc
000001c0: 35dd 2ebc b573 01be 04b7 3fbd 092d 043d
000001d0: 0fd4 253d 04e3 92bd 7711 15bc 41c2 4abd
000001e0: 3158 8a3d 2e2d 0d3d 9f35 323d 7543 973c
000001f0: c97c 573d a1fc 0c3d 4c0f fe3c adf4 753c
00000200: b402 c9bc 4384 7b3d 7fe3 2ebd 4af4 113e
00000210: 308d 81bc 7e50 86bd 9acc 9abd da02 e93b
00000220: 5853 10bd d320 6cbe 9f14 c8bc 31d9 903c
00000230: 692b 473e 9ca0 d2bb 14e5 033b 3fc4 803c
00000240: f84d 3dbc e115 2cbe b599 6cbd a7ab ccbd
00000250: 7813 473e c126 6d3d 99df c73c 5e22 25be
00000260: a7f1 063e 363b 813d caf6 f6bd 5c43 5a3e
00000270: 9634 c5bd 7e29 173d 926d 6c3c d743 babc
00000280: 3e24 91bd 5b2b 5a3c ac21 373c 10a9 c7bd
00000290: 7db1 583c 10a6 803b 4abc 883d 6922 2a3d
000002a0: 9bec 133d cd79 d63c cae7 913c 83a0 b63a
000002b0: 1f3e 3abd 763e 77bd a947 b6bb fb45 22bc
000002c0: abb3 e8bb f08f 7d3d 5cdf 0ebd d429 74bc
000002d0: 4509 aebd de81 383d c177 943c f2f1 f9bc
000002e0: 1eec 473d a3f9 c2bc f293 a83d 2ea6 96bd
000002f0: 3aa6 00bd 16da 31bd 6cfc 29ba 7942 7b3c
00000300: d6c5 753d bbb9 e5bd cf75 273d ad0f 1c3d
00000310: d364 b13c 8019 febc 1c97 19bd af53 3dbd
00000320: 1fe6 f1bb 5acd 9a3e 37c6 5bbd ec11 e13b
00000330: 49cd 1bbe fbb3 023d 3625 bfbb 7be2 00bc
00000340: 5cf9 a43d 4cf4 b23d 0fab 34bd 0eaf 263d
00000350: 70b1 9abd 9946 993c dd99 9e3b f615 903e
00000360: cd87 55be 7e79 4cbd dfa4 09be d5e7 853c
00000370: 92fa 65bc 1097 943d 8862 313d 9ff8 19bb
00000380: 133d 573d db25 47bd 02d6 203d 135a 6b3d
00000390: 0ccf fa3c 0112 6abc e112 cf3d 18c3 5e3d
000003a0: 6ccc d43c bf64 103e 99af d5bc 6ca9 71bd
000003b0: f655 a7bd 2d4b 523c e179 d0bd fa12 873c
000003c0: 510b c23c cfd0 803d ffe6 933c 8ca0 cdbc
000003d0: 79d4 91bc 008a f63c 2398 023d 76b4 4b3d
000003e0: a3e4 b3bd 2aaa 2cbd bf28 efbc 1885 2abd
000003f0: fa8a 71bd 7ba2 dbbb c903 11bd 0c38 7bbb

blocks.0.sa.heads.0.value.weight f4 [16, 32]
0.0076427255 -0.053948928 0.12022729 0.010869766 -0.08257264 0.039618474 -0.05224909 0.019247808
-0.08870834 0.020127563 -0.057959154 0.038026378 -0.15579632 0.047624532 0.1911489 0.08924018
0.020327024 0.030719262 0.0041424003 -0.15161793 -0.03792936 0.0800165 0.059879165 0.10101164
-0.03689067 -0.03585596 0.14134242 -0.004033033 -0.15990539 0.09627203 -0.05583826 -0.07076443
0.04672877 -0.030550243 0.14407392 -0.07599572 0.084197074 0.048174594 -0.21432789 -0.08527873
-0.10045609 0.16135387 -0.06200121 0.025076406 -0.113419585 0.104147986 -0.014852417 0.03315381
0.17032094 -0.14615735 -0.055387888 0.05806041 -0.06099734 -0.026970854 -0.08587243 0.23849675
-0.13159782 -0.05321561 0.04247476 0.09382882 -0.044242743 0.02391679 -0.016967384 -0.0507464
-0.023818053 0.006276591 0.067406915 0.028781772 -0.07225515 0.12681903 -0.032372948 0.14225447
0.02440926 0.010517503 0.047563773 0.07693159 0.0622731 -0.016052995 -0.05005882 0.015340664
-0.049491372 -0.038719617 -0.061340686 0.08805622 0.0029908638 0.10398427 0.038686585 -0.04491474
-0.18843035 -0.08003679 -0.083074786 -0.00085951656 -0.022410229 -0.12399636 -0.009280818 -0.07041334
-0.028167997 0.04303469 -0.052982006 0.09199501 -0.027918376 0.015035909 0.0048931655 -0.044187546
-0.04114415 0.03296202 -0.20895359 0.14520141 0.06931078 -0.009728797 -0.0814253 -0.0843156
-0.14976606 0.059684478 0.13766682 -0.10739232 -0.108253725 0.14921625 0.13793236 -0.071184985
0.13635598 0.11184543 -0.047023673 0.05641506 0.07410155 0.021517703 -0.279918 -0.054214496
-0.095620304 0.09869574 0.013133517 -0.02525604 -0.012564367 -0.10291436 0.15853727 0.06208763
-0.14542085 -0.18822615 -0.03107686 -0.016265953 -0.07382737 -0.027228104 0.09940547 0.13679841
0.056988105 -0.19550568 0.12788501 -0.07839469 -0.03879165 0.12283003 -0.045923375 0.025429292
-0.02769579 0.003924478 -0.12496557 -0.01114047 0.05424879 0.037564043 -0.00816815 0.23582737
-0.059960578 -0.05574094 0.05634766 -0.090651356 -0.30050927 0.05633596 -0.03489243 0.12118725
-0.061931834 0.016846476 -0.023341198 -0.04964497 -0.04150727 0.03156152 0.034491003 -0.16629711
-0.031773757 0.15302542 0.017653795 -0.04678378 0.00859877 -0.01979324 0.13515678 0.10771223
-0.15647417 0.11417113 0.20643863 0.039207533 -0.2171658 -0.008747009 0.06892605 -0.07044994
-0.08101331 0.05173427 0.11878152 -0.050914712 -0.113719806 -0.0031836296 0.11717895 0.26734376
-0.0044924677 -0.14491987 0.03644568 0.0016164093 0.09516827 -0.02308793 -0.04237361 0.05994037
-0.0001443918 -0.1748388 0.0004963661 0.14570835 0.053752348 0.07169737 -0.014935401 -0.04400664
-0.27394438 -0.018957518 -0.03436585 -0.059037868 -0.017895058 -0.10292529 0.01147154 0.04105272
0.09809 0.008176975 -0.015340072 0.055575233 -0.0749926 -0.094742864 -0.07260899 0.058127984
-0.0096446145 0.20867985 -0.16579331 0.053173896 -0.046138626 -0.063471965 0.18030173 0.046683002
-0.16860285 0.04576392 0.050850306 0.115907036 -0.02812428 -0.002406944 0.02337889 0.11141321
-0.23935062 0.004122326 0.048106097 -0.0047839116 -0.07822555 0.029877119 0.08027114 -0.2792763
00000000: d46f fa3b 8df9 5cbd ba39 f63d 1a17 323c
00000010: d81b a9bd fb46 223d 2403 56bd 94ad 9d3c
00000020: b8ac b5bd 8fe2 a43c 9466 6dbd 8cc1 1b3d
00000030: 1289 1fbe f111 433d 8abc 433e 8ec3 b63d
00000040: dc84 a63c f6a6 fb3c f9bc 873b bb41 1bbe
00000050: d15b 1bbd b1df a33d db43 753d 31df ce3d
00000060: ac1a 17bd b3dd 12bd 11bc 103e 8827 84bb
00000070: 3dbe 23be 452a c53d a9b6 64bd f1ec 90bd
00000080: ab66 3f3d 8144 fabc 1d88 133e a5a3 9bbd
00000090: 846f ac3d b952 453d c578 5bbe 9da6 aebd
000000a0: ecbb cdbd f339 253e fbf4 7dbd 096d cd3c
000000b0: 8748 e8bd 8a4b d53d 8d57 73bc 4acc 073d
000000c0: 9d68 2e3e 46aa 15be 69de 62bd c1d0 6d3d
000000d0: 59d8 79bd fbf1 dcbc e2dd afbd 7e38 743e
000000e0: 94c1 06be 9df8 59bd 04fa 2d3d 5329 c03d
000000f0: e137 35bd 25ed c33c 2fff 8abc 75db 4fbd
00000100: 141e c3bc ddab cd3b a30c 8a3d c0c7 eb3c
00000110: 82fa 93bd d9dc 013e 7f99 04bd 28ab 113e
00000120: eef5 c73c 9b51 2c3c 3bd2 423d 4f8e 9d3d
00000130: 1412 7f3d 9281 83bc 7a0a 4dbd 6957 7b3c
00000140: 77b7 4abd 7698 1ebd 5f40 7bbd d256 b43d
00000150: 5e02 443b b4f5 d43d d375 1e3d 85f8 37bd
00000160: e3f3 40be 54ea a3bd 1d23 aabd 2e51 61ba
00000170: a895 b7bc cef1 fdbd 920e 18bc df34 90bd
00000180: 92c0 e6bc 2545 303d a903 59bd e167 bc3d
00000190: 14b5 e4bc 2c59 763c d956 a03b 00fe 34bd
000001a0: c586 28bd 2f03 073d eef7 55be aeaf 143e
000001b0: cff2 8d3d 8865 1fbc 4fc2 a6bd a8ad acbd
000001c0: 465c 19be b677 743d 88f8 0c3e 81f0 dbbd
000001d0: 21b4 ddbd 25cc 183e 243e 0d3e 6fc9 91bd
000001e0: e7a0 0b3e 380f e53d e59b 40bd 7a13 673d
000001f0: 8ec2 973d e545 b03c 6951 8fbe 0510 5ebd
00000200: 94d4 c3bd fe20 ca3d f62d 573c c1e5 cebc
00000210: c6da 4dbc c4c4 d2bd 9857 223e 994f 7e3d
00000220: 34e9 14be 5bbe 40be e694 febc 2d40 85bc
00000230: ce32 97bd 790d dfbc 1895 cb3d e214 0c3e
00000240: 5c6c 693d a432 48be 4af4 023e 658d a0bd
00000250: fee3 1ebd 508e fb3d 261a 3cbd 1751 d03c
00000260: 48e2 e2bc e898 803b f3ed ffbd 8586 36bc
00000270: fb33 5e3d c1dc 193d b4d3 05bc bb7c 713e
00000280: 3999 75bd 9d50 64bd cecc 663d 6ba7 b9bd
00000290: 5adc 99be 89c0 663d 5deb 0ebd 0531 f83d
000002a0: 3cac 7dbd 9f01 8a3c 0a36 bfbc 8658 4bbd
000002b0: 8703 2abd a746 013d 7046 0d3d ca49 2abe
000002c0: 3325 02bd b2b2 1c3e b19e 903c 59a0 3fbd
000002d0: dbe1 0c3c 6f25 a2bc 8a66 0a3e 3b98 dc3d
000002e0: c43a 20be 8ed2 e93d a664 533e 1498 203d
000002f0: b660 5ebe 9d4f 0fbc 1a29 8d3d 0f48 90bd
00000300: 4eea a5bd 50e7 533d ba43 f33d f28b 50bd
00000310: eee5 e8bd 71a4 50bb 84fb ef3d 48e1 883e
00000320: 8d35 93bb e065 14be 1148 153d b2dd d33a
00000330: 95e7 c23d e622 bdbc f38f 2dbd 0984 753d
00000340: e167 17b9 f108 33be 911e 023a 9234 153e
00000350: 6c2b 5c3d 12d6 923d 9db3 74bc 4e40 34bd
00000360: 7042 8cbe cc4c 9bbc 35c3 0cbd b1d1 71bd
00000370: a898 92bc 7fca d2bd 20f3 3b3c e626 283d
00000380: 69e3 c83d b8f8 053c ed54 7bbc dba2 633d
00000390: b895 99bd 8c08 c2bd 06b4 94bd 9c17 6e3d
000003a0: 7204 1ebc 2cb0 553e b9c5 29be dfcc 593d
000003b0: dbfb 3cbd 97fd 81bd 04a1 383e ad36 3f3d
000003c0: 3aa6 2cbe f372 3b3d 6948 503d ab60 ed3d
000003d0: e464 e6bc d2bd 1dbb 1685 bf3c 9c2c e43d
000003e0: 5418 75be 9414 873b e60a 453d 5cc2 9cbb
000003f0: b834 a0bd dcc0 f43c 3265 a43d 4efd 8ebe

blocks.0.sa.heads.1.tril f4 [32, 32]
1.0 0.0 0.0 0.0 0.0 0.0 0.0 0.0
0.0 0.0 0.0 0.0 0.0 0.0 0.0 0.0
0.0 0.0 0.0 0.0 0.0 0.0 0.0 0.0
0.0 0.0 0.0 0.0 0.0 0.0 0.0 0.0
1.0 1.0 0.0 0.0 0.0 0.0 0.0 0.0
0.0 0.0 0.0 0.0 0.0 0.0 0.0 0.0
0.0 0.0 0.0 0.0 0.0 0.0 0.0 0.0
0.0 0.0 0.0 0.0 0.0 0.0 0.0 0.0
1.0 1.0 1.0 0.0 0.0 0.0 0.0 0.0
0.0 0.0 0.0 0.0 0.0 0.0 0.0 0.0
0.0 0.0 0.0 0.0 0.0 0.0 0.0 0.0
0.0 0.0 0.0 0.0 0.0 0.0 0.0 0.0
1.0 1.0 1.0 1.0 0.0 0.0 0.0 0.0
0.0 0.0 0.0 0.0 0.0 0.0 0.0 0.0
0.0 0.0 0.0 0.0 0.0 0.0 0.0 0.0
0.0 0.0 0.0 0.0 0.0 0.0 0.0 0.0
1.0 1.0 1.0 1.0 1.0 0.0 0.0 0.0
0.0 0.0 0.0 0.0 0.0 0.0 0.0 0.0
0.0 0.0 0.0 0.0 0.0 0.0 0.0 0.0
0.0 0.0 0.0 0.0 0.0 0.0 0.0 0.0
1.0 1.0 1.0 1.0 1.0 1.0 0.0 0.0
0.0 0.0 0.0 0.0 0.0 0.0 0.0 0.0
0.0 0.0 0.0 0.0 0.0 0.0 0.0 0.0
0.0 0.0 0.0 0.0 0.0 0.0 0.0 0.0
1.0 1.0 1.0 1.0 1.0 1.0 1.0 0.0
0.0 0.0 0.0 0.0 0.0 0.0 0.0 0.0
0.0 0.0 0.0 0.0 0.0 0.0 0.0 0.0
0.0 0.0 0.0 0.0 0.0 0.0 0.0 0.0
1.0 1.0 1.0 1.0 1.0 1.0 1.0 1.0
0.0 0.0 0.0 0.0 0.0 0.0 0.0 0.0
0.0 0.0 0.0 0.0 0.0 0.0 0.0 0.0
0.0 0.0 0.0 0.0 0.0 0.0 0.0 0.0
00000000: 0000 803f 0000 0000 0000 0000 0000 0000
00000010: 0000 0000 0000 0000 0000 0000 0000 0000
00000020: 0000 0000 0000 0000 0000 0000 0000 0000
00000030: 0000 0000 0000 0000 0000 0000 0000 0000
00000040: 0000 0000 0000 0000 0000 0000 0000 0000
00000050: 0000 0000 0000 0000 0000 0000 0000 0000
00000060: 0000 0000 0000 0000 0000 0000 0000 0000
00000070: 0000 0000 0000 0000 0000 0000 0000 0000
00000080: 0000 803f 0000 803f 0000 0000 0000 0000
00000090: 0000 0000 0000 0000 0000 0000 0000 0000
000000a0: 0000 0000 0000 0000 0000 0000 0000 0000
000000b0: 0000 0000 0000 0000 0000 0000 0000 0000
000000c0: 0000 0000 0000 0000 0000 0000 0000 0000
000000d0: 0000 0000 0000 0000 0000 0000 0000 0000
000000e0: 0000 0000 0000 0000 0000 0000 0000 0000
000000f0: 0000 0000 0000 0000 0000 0000 0000 0000
00000100: 0000 803f 0000 803f 0000 803f 0000 0000
00000110: 0000 0000 0000 0000 0000 0000 0000 0000
00000120: 0000 0000 0000 0000 0000 0000 0000 0000
00000130: 0000 0000 0000 0000 0000 0000 0000 0000
00000140: 0000 0000 0000 0000 0000 0000 0000 0000
00000150: 0000 0000 0000 0000 0000 0000 0000 0000
00000160: 0000 0000 0000 0000 0000 0000 0000 0000
00000170: 0000 0000 0000 0000 0000 0000 0000 0000
00000180: 0000 803f 0000 803f 0000 803f 0000 803f
00000190: 0000 0000 0000 0000 0000 0000 0000 0000
000001a0: 0000 0000 0000 0000 0000 0000 0000 0000
000001b0: 0000 0000 0000 0000 0000 0000 0000 0000
000001c0: 0000 0000 0000 0000 0000 0000 0000 0000
000001d0: 0000 0000 0000 0000 0000 0000 0000 0000
000001e0: 0000 0000 0000 0000 0000 0000 0000 0000
000001f0: 0000 0000 0000 0000 0000 0000 0000 0000
00000200: 0000 803f 0000 803f 0000 803f 0000 803f
00000210: 0000 803f 0000 0000 0000 0000 0000 0000
00000220: 0000 0000 0000 0000 0000 0000 0000 0000
00000230: 0000 0000 0000 0000 0000 0000 0000 0000
00000240: 0000 0000 0000 0000 0000 0000 0000 0000
00000250: 0000 0000 0000 0000 0000 0000 0000 0000
00000260: 0000 0000 0000 0000 0000 0000 0000 0000
00000270: 0000 0000 0000 0000 0000 0000 0000 0000
00000280: 0000 803f 0000 803f 0000 803f 0000 803f
00000290: 0000 803f 0000 803f 0000 0000 0000 0000
000002a0: 0000 0000 0000 0000 0000 0000 0000 0000
000002b0: 0000 0000 0000 0000 0000 0000 0000 0000
000002c0: 0000 0000 0000 0000 0000 0000 0000 0000
000002d0: 0000 0000 0000 0000 0000 0000 0000 0000
000002e0: 0000 0000 0000 0000 0000 0000 0000 0000
000002f0: 0000 0000 0000 0000 0000 0000 0000 0000
00000300: 0000 803f 0000 803f 0000 803f 0000 803f
00000310: 0000 803f 0000 803f 0000 803f 0000 0000
00000320: 0000 0000 0000 0000 0000 0000 0000 0000
00000330: 0000 0000 0000 0000 0000 0000 0000 0000
00000340: 0000 0000 0000 0000 0000 0000 0000 0000
00000350: 0000 0000 0000 0000 0000 0000 0000 0000
00000360: 0000 0000 0000 0000 0000 0000 0000 0000
00000370: 0000 0000 0000 0000 0000 0000 0000 0000
00000380: 0000 803f 0000 803f 0000 803f 0000 803f
00000390: 0000 803f 0000 803f 0000 803f 0000 803f
000003a0: 0000 0000 0000 0000 0000 0000 0000 0000
000003b0: 0000 0000 0000 0000 0000 0000 0000 0000
000003c0: 0000 0000 0000 0000 0000 0000 0000 0000
000003d0: 0000 0000 0000 0000 0000 0000 0000 0000
000003e0: 0000 0000 0000 0000 0000 0000 0000 0000
000003f0: 0000 0000 0000 0000 0000 0000 0000 0000

blocks.0.sa.heads.1.key.weight f4 [16, 32]
-0.12621242 0.11104565 -0.0036319138 0.17113201 0.019662943 -0.06157547 -0.043648157 -0.08041034
-0.26415902 0.053864874 -0.085705 -0.0046149255 0.10449423 0.03292762 -0.093338184 0.03213839
-0.010322846 -0.023763973 -0.021156538 -0.1517526 0.5500845 0.08491951 -0.0666601 0.061268624
0.058152515 0.084656194 -0.026628852 0.19312406 -0.041972227 -0.07011825 0.08907959 -0.07638809
0.14134848 -0.101025134 -0.016070126 -0.14154352 -0.017959662 0.023465794 0.029203927 0.07504164
0.2373989 -0.041445225 0.10062815 0.009483223 -0.070269175 -0.012843955 0.10381478 -0.018917125
-0.008011082 0.06668068 0.031784322 0.11676597 -0.5400866 -0.081338696 0.076040775 -0.065146044
-0.041419532 -0.07300609 0.035136092 -0.17660367 0.047052506 0.045867 -0.109681405 0.09400909
0.13573655 -0.07922679 -0.0032528383 -0.17145988 0.01707325 0.056766484 0.06394592 0.06095822
0.28321126 -0.04676581 0.086062245 -0.032716487 -0.08450298 -0.0071671912 0.092708744 0.0052496204
-0.03410948 0.0017283161 0.019745205 0.0867979 -0.5405236 -0.06784691 0.057935264 -0.050068844
-0.035106793 -0.042713404 0.039626446 -0.20778851 0.023342868 0.06700501 -0.14009184 0.039855257
-0.102412805 0.11579454 0.024105977 0.15271448 0.024222588 -0.03958714 -0.03632909 -0.11041654
-0.24072395 0.043858487 -0.12633993 0.0044142483 0.099144325 -0.01451909 -0.11807297 -0.013584734
0.008447306 -0.020827923 -0.022396855 -0.12819506 0.5410041 0.124630935 -0.066625915 0.014884393
0.047201373 0.095983386 0.0010162455 0.20356871 -0.04263011 -0.04381142 0.13724153 -0.05749009
0.092930496 -0.109121256 -0.022864271 -0.14258021 -0.009295536 0.03713399 0.052421827 0.09049391
0.24221405 -0.031700257 0.10129806 -0.013181408 -0.06941406 0.014168331 0.10921581 -0.038703404
-0.0018070445 0.060355708 0.028418692 0.09580429 -0.5388325 -0.11132691 0.11969679 -0.07328104
-0.056849223 -0.09804732 0.023121633 -0.18967305 0.030199349 0.05340869 -0.08735325 0.042843938
-0.133212 0.104418166 0.020156927 0.1194476 0.015758414 -0.01537876 -0.040035162 -0.0682691
-0.25111303 0.036759846 -0.10745925 -0.01748552 0.09792715 0.035119787 -0.08069333 0.08027244
-0.011619409 -0.03903013 -0.036033936 -0.12457007 0.50243 0.07287253 -0.047060262 0.040129535
0.04052202 0.08672575 -0.011727132 0.13703485 -0.008996468 -0.060002368 0.060246326 -0.024277948
-0.104228534 0.09932594 0.032605864 0.18617022 0.0075790086 -0.028816273 -0.020129079 -0.045106426
-0.24507807 0.036423698 -0.087819554 0.0028432505 0.14686301 0.02983234 -0.102538384 0.009917999
0.004939711 -0.04887645 -0.027772382 -0.13149713 0.5462172 0.091049634 -0.12467639 0.06426246
0.08547996 0.08207342 -0.01578227 0.18474406 -0.027403114 -0.07293233 0.07886248 -0.06797265
-0.06333116 0.036053818 0.062092703 0.24856815 0.008919232 -0.10392169 -0.026110258 -0.08454137
-0.21061255 0.059291694 -0.094922096 -0.041896485 0.07747031 -0.068209365 -0.11538961 0.042600203
-0.05899384 -0.025072897 -0.02321403 -0.16796345 0.52321815 0.05570238 -0.027690897 0.08162463
0.058030255 0.07335198 -0.03372372 0.16891217 -0.112303264 -0.078615084 0.060065124 -0.039796807
00000000: d43d 01be e76b e33d 6705 6ebb 3b3d 2f3e
00000010: 2e14 a13c 8f36 7cbd 69c8 32bd 2dae a4bd
00000020: da3f 87be 6aa1 5c3d 1a86 afbd cd38 97bb
00000030: 1201 d63d 1ddf 063d 1728 bfbd 8ba3 033d
00000040: 2721 29bc aaac c2bc 7a50 adbc 0965 1bbe
00000050: 56d2 0c3f 48ea ad3d 1785 88bd cff4 7a3d
00000060: 5531 6e3d 3a60 ad3d c024 dabc 50c2 453e
00000070: 12eb 2bbd 289a 8fbd 5c6f b63d 5c71 9cbd
00000080: a8bd 103e 44e6 cebd 7fa5 83bc c9f0 10be
00000090: 2420 93bc 563b c03c 133d ef3c 6eaf 993d
000000a0: b218 733e 78c2 29bd 2216 ce3d 855f 1b3c
000000b0: 49e9 8fbd 746f 52bc d89c d43d 16f8 9abc
000000c0: ea40 03bc e18f 883d 4730 023d ff22 ef3d
000000d0: 1e43 0abf e794 a6bd 44bb 9b3d 4a6b 85bd
000000e0: 87a7 29bd 3884 95bd ddea 0f3d 98d7 34be
000000f0: 21ba 403d 09df 3b3d a5a0 e0bd d687 c03d
00000100: 86fe 0a3e a841 a2bd 922d 55bb 2e93 2fbe
00000110: 33dd 8b3c f983 683d 14f6 823d 54af 793d
00000120: 1101 913e 828d 3fbd 6741 b03d b901 06bd
00000130: e60f adbd c2da eabb 15de bd3d 0205 ac3b
00000140: 62b6 0bbd aa88 e23a b2c0 a13c 19c3 b13d
00000150: c15f 0abf 52f3 8abd 874d 6d3d fd14 4dbd
00000160: 24cc 0fbd 40f4 2ebd 574f 223d 83c6 54be
00000170: 8b39 bf3c ec39 893d 3c74 0fbe 443f 233d
00000180: cebd d1bd b025 ed3d e679 c53c 2f61 1c3e
00000190: 736e c63c 2026 22bd d0cd 14bd 1122 e2bd
000001a0: 5780 76be f5a4 333d 415f 01be 66a5 903b
000001b0: 2e0c cb3d 7ae1 6dbc 3ed0 f1bd 8192 5ebc
000001c0: 9266 0a3c 529f aabc 9c79 b7bc 9145 03be
000001d0: 3f7f 0a3f 813e ff3d 2b73 88bd abdd 733c
000001e0: 3a56 413d f092 c43d 8a33 853a 5174 503e
000001f0: e99c 2ebd 9b73 33bd 0b89 0c3e bb7a 6bbd
00000200: 5852 be3d f77a dfbd da4d bbbc 8c00 12be
00000210: 4e4c 18bc d019 183d 45b8 563d df54 b93d
00000220: f606 783e 21d8 01bd 5b75 cf3d d5f6 57bc
00000230: f528 8ebd 4a22 683c 8aac df3d 7687 1ebd
00000240: 5ada ecba 8c37 773d 51ce e83c 0a35 c43d
00000250: edf0 09bf 5dff e3bd 9723 f53d 5f14 96bd
00000260: bbda 68bd 09cd c8bd 9469 bd3c a739 42be
00000270: a064 f73c 12c3 5a3d 43e6 b2bd 207d 2f3d
00000280: ba68 08be 31d9 d53d 2420 a53c f1a0 f43d
00000290: ca17 813c 32f7 7bbc e9fb 23bd abd0 8bbd
000002a0: e391 80be 7e91 163d 9813 dcbd cb3d 8fbc
000002b0: 088e c83d c4d9 0f3d 8b42 a5bd e165 a43d
000002c0: 555f 3ebc 0fde 1fbd 5298 13bd 981e ffbd
000002d0: 419f 003f 313e 953d 43c2 40bd de5e 243d
000002e0: 6bfa 253d 459d b13d 2823 40bc dd52 0c3e
000002f0: ec65 13bc 0bc5 75bd dac4 763d 8ce2 c6bc
00000300: c575 d5bd 666b cb3d ba8d 053d 68a3 3e3e
00000310: 5559 f83b 1b10 ecbc bde5 a4bc 84c1 38bd
00000320: bff5 7abe 0431 153d bdda b3bd d455 3a3b
00000330: 4263 163e f462 f43c a5ff d1bd 1a7f 223c
00000340: 4ddd a13b ac32 48bd e882 e3bc 2fa7 06be
00000350: e4d4 0b3f 3b78 ba3d 5656 ffbd 099c 833d
00000360: 1e10 af3d 1c16 a83d d249 81bc 8c2d 3d3e
00000370: 7f7c e0bc 8c5d 95bd a782 a13d 3f35 8bbd
00000380: c4b3 81bd 2bad 133d eb54 7e3d a688 7e3e
00000390: f821 123c e5d4 d4bd 2ee5 d5bc 0724 adbd
000003a0: d1aa 57be d9db 723d 8466 c2bd a69b 2bbd
000003b0: c1a8 9e3d 5ab1 8bbd 6351 ecbd 8d7d 2e3d
000003c0: 86a3 71bd ad65 cdbc 592b bebc 9cfe 2bbe
000003d0: a0f1 053f 2e28 643d 05d8 e2bc d02a a73d
000003e0: 22b1 6d3d 9039 963d e221 0abd 50f7 2c3e
000003f0: 41ff e5bd f200 a1bd d906 763d fa01 23bd
