saved_models/Wider_Shallower_model.pt (torch, 141910 bytes, 24 tensors)

token_embedding_table.weight f4 [15, 48]
00000000: 6c09 7d3d af89 823d e9d0 16be e9fe ec3d
00000010: ac45 5bbc aa4c bfbc b020 23be 64f0 853d
00000020: 4c42 13be 44f3 3f3b badf a2bd 1c58 4bbd
00000030: 5983 90bd 1efb bb3d 75ec 72bd 3be4 3c3e
00000040: 453a 1cbc d676 82bd be8a babd 7b75 ed3d
00000050: 780e 783d 065c 2a3c cd48 cfbb 94f0 893b
00000060: 86bb 5a3c 3691 dbbc 7cbc 21be a8be e33d
00000070: db74 c73e 8e1f edbd 4522 d3bc 34ca 783e
00000080: e391 213d 6992 d03c a26d 9e3d d443 463e
00000090: ffc8 293e 29c8 f8bd b581 80bd d58d 92be
000000a0: 76fb 0abd 1840 1b3d e071 863e ea0c 7b3b
000000b0: b109 5dbe 1567 1bbd 7975 c7bd 29ae c2bd
000000c0: fa6f 063e 8d55 3e3d de7e 713d ca54 4d3c
000000d0: 38a3 413e fb2f e7bd a25b 00bc 013c 2abe
000000e0: ec5e 053e 4674 4e3e 0a8b 20be 9d4e 283d
000000f0: fe5b cdbd 7ff4 783c a153 f93d 19e6 15be
00000100: 7094 4a3d fac3 87bc 807c f83c 830a 0ebe
00000110: c224 bebd 598e cabc 31bf 2fbe e285 263d
00000120: 377a 123d f689 d7bd f567 c63d 0d7d bc3c
00000130: 69cd 60bb 161f f8bd 3d52 5fbd 7565 58bd
00000140: 3792 eb3d 28ff 80bd 9b4d c43d 64a6 5cbd
00000150: f749 84bc a340 cfbd d042 b43d 6547 5d3e
00000160: 82b2 c93d a09a 23bd c536 d4bb 14d0 92bd
00000170: de14 4dbb ae4e 07be ce73 373e a5e2 81b9
00000180: 984d ad3b 8189 04be 4aeb 5c3d 33d2 95bd
00000190: 0e48 55bd 78f3 bebb a202 c8bc 302e 403d
000001a0: bf94 27bc fad0 33bd 1a7b 2d3e c168 37bd
000001b0: c694 f9bd ced6 37b8 602a 2f3d a947 b3bd
000001c0: eb51 b9bd de06 a73e a34f 9abd 5791 70bc
000001d0: c4ac be3c 5a98 b23d e06f 45bc 2b8c c0bc
000001e0: d521 48be 3489 85bd 1bba 973c 5979 123d
000001f0: fb0d 53bc 5681 4a3d 246e 303e 8f79 c13c
00000200: 18e1 fdbd 3bb9 24bb 3a49 8b3d d009 5b3d
00000210: f307 8e3d 2f52 cf3d efe7 fa3a 3cbc 5ebc
00000220: 9e6c 323d 75e8 123c d997 133d b507 40bc
00000230: 2448 b4bc bf8b 2d3d f983 e4bd b548 c9bb
00000240: 506e 81bd c57d 19be 66ad e3bd 6b2c bcbd
00000250: f128 0ebc 56f2 103e ee39 ddbc 83f6 0fbe
00000260: 9419 8cbd 1aca a03c eca6 b8bd e712 3c3d
00000270: 0811 c73d 6993 f239 00dd f9bc 6628 69bd
00000280: 7715 c03d 2bed 873d e153 06bd 0929 89bd
00000290: a651 af3d ce12 abbb dc1c 173e 2ea2 a03d
000002a0: dfb2 74bd e383 08bc 421b 44be 0f30 bd3c
000002b0: 8f40 a03b 8816 e53d e3fb da3d 825c f7bc
000002c0: cbda 3c3b 5435 b93d 2ca0 c33d c4b2 da3c
000002d0: 2109 c2bd f451 693d bf40 85bd 3314 61bd
000002e0: e693 f03d 491e 8dbd 88c4 a839 0c0b b33b
000002f0: 76fc 8b3c b2bf b73d ffc7 6fbd 79e0 173e
00000300: a740 0dbd 0ed0 1fbe 77f3 d23d 5352 84bd
00000310: b22e 623d e834 573e 1280 e9bd 9d00 09be
00000320: f35f e0bb 76ed 83bd 95bb 6abd 145e d03c
00000330: 96f8 423d db91 9abd dd05 ecbc c4d4 1c3e
00000340: b633 45be 9948 09bd 355d cfbc 921d 8b3d
00000350: 7f2c 4dbd e58a 9bbb c77c c03d ac8a e5bc
00000360: c393 b03c 244f 8f3d 7c93 6e3e 9abe f13d
00000370: b3b4 923c b438 7b3d d415 68bd 4bf9 3ebc
00000380: be45 60bd 9bf6 36bd 4dca 45bd d796 953d
00000390: bbe1 3cbd 35f0 a63d e9b6 d73d dacf 07bd
000003a0: 5391 a23c 7090 89bd 541d 93bc ffc4 8bbc
000003b0: 7e5e 09bd e0f9 db3b 8fbe a2bd ec88 c0bd
000003c0: a1ad 133e 606e 6abd ca78 b0bd 3e12 56bc
000003d0: 440f 3e3d 5881 813d d02c 90bd 2def 96bd
000003e0: 768d e8bd 200b 0fbe 2133 9f3d 1ee3 4d3e
000003f0: dc06 753d 0fdf 81bb 1409 333e 48d1 793d
0.061776564 0.06373917 -0.1472813 0.11572058 -0.01338331 -0.023351986 -0.15930438 0.065399915
-0.14380759 0.0029289285 -0.07952829 -0.049644575 -0.070563026 0.09178756 -0.059307534 0.18446438
-0.009535377 -0.063703224 -0.09108494 0.11594673 0.060560673 0.010397917 -0.006325817 0.0042095874
0.013350373 -0.02680264 -0.15794557 0.11120349 0.3895634 -0.11578284 -0.025773177 0.24295884
0.03944577 0.025460439 0.077357545 0.19361812 0.1658058 -0.121475525 -0.0627474 -0.28623834
-0.033931218 0.03790292 0.26258755 0.0038307258 -0.21585728 -0.037940104 -0.09739203 -0.09505875
0.13128653 0.046468306 0.05895888 0.012532422 0.1890992 -0.112884484 -0.007834347 -0.16624452
0.13024491 0.20161542 -0.15678039 0.041090596 -0.10027312 0.015195011 0.12174154 -0.14638557
0.049457967 -0.016572941 0.030332804 -0.13871197 -0.09284355 -0.02472608 -0.17162777 0.040655024
0.035761084 -0.10524361 0.09687797 0.023008848 -0.0034302121 -0.12115304 -0.054521788 -0.052831132
0.11502498 -0.06298667 0.095851146 -0.05386962 -0.01614855 -0.1011975 0.08801806 0.21609266
0.09848501 -0.039942384 -0.0064762556 -0.07168594 -0.0031292955 -0.13213608 0.1791527 -0.0002477366
0.005288791 -0.12943079 0.053935327 -0.07315483 -0.05207067 -0.0058273636 -0.024415318 0.046919048
-0.010228335 -0.043900467 0.16941491 -0.044777635 -0.121865794 -4.3830652e-05 0.04276502 -0.087539025
-0.09048828 0.32622427 -0.07534721 -0.014683089 0.02327574 0.08720465 -0.012050599 -0.023504337
-0.19544156 -0.0652031 0.01852136 0.035760257 -0.012881751 0.04943975 0.17229515 0.023617534
-0.12396449 -0.002513482 0.06801076 0.053476155 0.0693511 0.10123097 0.0019142608 -0.013594683
0.043560617 0.008966555 0.036033485 -0.0117205875 -0.022007056 0.0423696 -0.11157984 -0.0061427006
-0.063198686 -0.14989384 -0.111170575 -0.091881596 -0.008676753 0.14154944 -0.027005162 -0.1405888
-0.06840816 0.01962762 -0.09016213 0.045916464 0.09720045 0.00046267666 -0.030500889 -0.056923293
0.09379094 0.06637033 -0.032794837 -0.0669728 0.08560495 -0.0052207476 0.14757103 0.07843433
-0.059740897 -0.0083322255 -0.19151023 0.023094205 0.0048905085 0.11185938 0.10692575 -0.030195478
0.0028816934 0.09043375 0.09552035 0.02669657 -0.094743975 0.056962922 -0.0650649 -0.054950904
0.117469594 -0.06890542 0.00032189884 0.0054639634 0.017088156 0.0897211 -0.05854034 0.14831723
-0.034485485 -0.1560671 0.103003435 -0.064610146 0.055220313 0.21016276 -0.114013806 -0.1337914
-0.0068473755 -0.064417765 -0.0573078 0.025435485 0.04760035 -0.07547351 -0.02881139 0.15315539
-0.19258007 -0.0335165 -0.025313 0.067927495 -0.050091263 -0.004746782 0.093987994 -0.028020225
0.021554833 0.06997517 0.23298448 0.118039325 0.01790843 0.061333373 -0.056661442 -0.011656116
-0.05475401 -0.044668775 -0.048288632 0.07304161 -0.04611371 0.081512846 0.10532934 -0.033157207
0.019844687 -0.067170024 -0.01795832 -0.017061708 -0.03353738 0.006713137 -0.079465024 -0.09401116
0.14421703 -0.057234168 -0.08616789 -0.013065873 0.046401277 0.063234985 -0.07039797 -0.07369838
-0.113551065 -0.13969088 0.07773424 0.2010617 0.059820995 -0.0039633582 0.17483932 0.0609906

position_embedding_table.weight f4 [32, 48]
00000000: 2160 95bd bd2d 28bd a91c 8fbd 481c 9bbd
00000010: 1887 d83d e0e0 16bd 90f2 c63c 8042 2e3c
00000020: 5edd 96bd 99dc dabc a9b2 68bc 808b 69bd
00000030: 0317 16bd fe7c 6e3d 4f61 b53c 4359 593d
00000040: 8d99 2fbd 969d 7f3b 4eda 4fbd 07f7 aabd
00000050: 1e25 7ebd 9c9e acbd 036e 0c3c da1b a33d
00000060: 7bee 7f3d 7e85 edbc da61 e03c 47c0 9dbd
00000070: 75f7 483e a671 34bd 9ff2 72bd 892e 95bd
00000080: 188e 2a3d 8ede cabd 6173 963d 57a3 893d
00000090: 9147 ac3d a4cb 65bd 930e d43b 6f05 1e3e
000000a0: 8255 743c cf38 9f3d c877 2bbd e7b0 843a
000000b0: 5c7e e43c f622 2a3c 5770 8dbd f48c fc3c
000000c0: 422c b4ba a73a 05bd afea b53b da35 dabc
000000d0: 5300 833d 949a ddbc bb8f 273d 652a b8bc
000000e0: 18e2 02bc 38b7 dc3c d63e 71bd 7878 c9bd
000000f0: a626 b4bc c4ad 9a3d 67d3 adbc c7e8 273d
00000100: 4908 7b3c b883 eab9 2a42 e43c 4945 8dbd
00000110: 6cc3 39bd 16ca 1cbd 7dc5 873b fd12 b13b
00000120: 3e4c 833d a4ae dbbd 8992 0dbb f391 f5bd
00000130: 8c6b 5f3e fb31 8cbb 739a 15bd a51c 35bd
00000140: 140c 303d b3f7 86bd 67f8 d03c 7500 1c3e
00000150: 2fea 83bd db3c 15be 107f 7d3c 53d1 e63d
00000160: d8ad 153d 1646 653d ff21 a13d f20f 8e3b
00000170: 5a60 70bd 1918 943c f8b6 8ebd 0b80 b5bc
00000180: 6613 c7bb 9ed4 7abc b008 073c 336e c7bc
00000190: c414 803d abc2 d6bc 1ec4 da3c c91b 8f3d
000001a0: 2c8d 073d 2743 4a3d 57c2 a5bc b8a1 bfbd
000001b0: f317 113c 3361 b13d 422b 35bd f24b 683d
000001c0: 3f3e 643d 0807 a93c 604b 403d f945 44bd
000001d0: bb30 73bd c412 32bc b1a5 853c 98d9 17bd
000001e0: 0872 653d 07f6 e2bd 1a4d 8fbc 36d1 f0bc
000001f0: 5d40 063e fd27 4bbd 030f 97bc 8264 97bd
00000200: 6b82 953c c2d9 1dbd 1036 033d 29a9 0b3e
00000210: 2b13 3abd 147a 10be 4dd3 483d d259 a43d
00000220: ac4c cc3c 375b 9f3d 1f96 e23d d771 873b
00000230: af47 a5bd e878 c03c 425f c1bd 3c30 48bc
00000240: eb11 34bd c31a 01bd 7d16 71bd 515e a4bd
00000250: d84d 603d f6b3 88bc 38ed 47bd 8ff9 e33c
00000260: 7df6 acbc bd16 b1bc a267 dabc 419d 42bd
00000270: efce 943c d88f a73d 74dd 0f3c 65b3 563c
00000280: bd4e 023b 31d9 e03b 5d35 23bd f6a1 a8bd
00000290: 885e 92bd 6d62 febc 6092 8fbc 9975 663d
000002a0: f1b8 a03c b83c 53bd 80ae 683c a77b 8e3d
000002b0: 5721 ab3d 9e9a 15bd 9d95 dcbc 5d44 a1bd
000002c0: 5105 123d 5e85 9fbd 6070 6fbc 94ea 153d
000002d0: 4552 863d affd 26bd 693f 533d be95 813d
000002e0: a508 473c 6332 d43d a3c3 903b 2fa8 383b
000002f0: b98f e7bc 5d46 2d3c c35f 8fbd f838 ce3c
00000300: 8873 00bd 6d5b c03b 7768 bdbb 723f 86bc
00000310: 78ed a43d 930e 3fbd a1de d3bc a75a 313d
00000320: 343a 683c 9d35 8d3b a01d 3dbd b372 84bd
00000330: 2679 453d a80d 533d 8e67 8e3c ad29 653c
00000340: 6f18 60bb f366 183d 8c06 e5bc 2926 9dbd
00000350: 92bb 83bd 6eb9 23bd 9199 3d3b fa02 323d
00000360: 031d 0abc eb43 793c 6d15 293c d859 ef39
00000370: 9dae c23d 86f2 91bd 468b f23b 5a70 ddbd
00000380: 43c8 433d bd23 7c3c 1764 b1bd d242 483d
00000390: a06f 383d 04b8 72bd 91e4 ba3d 5e42 dc3c
000003a0: 29a2 0a3d 79ea 4e3d a153 9f3d 152a e63b
000003b0: 8f84 4fbd e23c 14bd 05c0 f7bc 902a 593d
000003c0: c33e 26bc 095a 643c dc4e a2bc ff22 7fbd
000003d0: 2955 473c 2275 e9bc 85e5 9ebd 196d 8b3a
000003e0: 8363 e13a 8f75 473c 045d 22bb 8041 4bbd
000003f0: 2cc0 be3c fad9 5a3d 7e9a 47bc 2907 353c
-0.07293726 -0.041059244 -0.06987888 -0.075737536 0.10572642 -0.03683555 0.024285585 0.010635972
-0.07366441 -0.026716517 -0.014202752 -0.057017803 -0.03664304 0.05822467 0.022141127 0.053063642
-0.042871047 0.003900384 -0.0507453 -0.08347898 -0.062047116 -0.0842869 0.008571151 0.07964297
0.062483292 -0.028994318 0.02739041 -0.077026896 0.19625647 -0.044053696 -0.059313413 -0.072842665
0.041639417 -0.0990573 0.073462255 0.06720608 0.08412088 -0.05610241 0.006471464 0.1543176
0.014912965 0.07774507 -0.04186228 0.0010123522 0.027892284 0.010384312 -0.06906193 0.03082893
-0.00137461 -0.03252664 0.005551658 -0.026637007 0.06396546 -0.027051248 0.040908556 -0.022481153
-0.007988475 0.026942834 -0.058897816 -0.09837431 -0.021991085 0.075526744 -0.021218969 0.04099348
0.0153218 -0.00044730096 0.02786358 -0.06897981 -0.045352384 -0.03827866 0.0041434155 0.005403875
0.064110264 -0.107266694 -0.0021602234 -0.11990728 0.2181837 -0.004278419 -0.036524247 -0.04421677
0.04298027 -0.065902136 0.025509072 0.1523455 -0.06441151 -0.14573996 0.015472189 0.11270394
0.036542743 0.055975042 0.07867812 0.004335397 -0.058685638 0.018077897 -0.06968492 -0.022155782
-0.0060753105 -0.015309481 0.008241817 -0.02434454 0.06253961 -0.026215872 0.026704844 0.069877215
0.033093616 0.049380448 -0.02023427 -0.09357017 0.008855808 0.086611174 -0.044230707 0.056713052
0.055723425 0.020633236 0.046946883 -0.047918294 -0.059372645 -0.010868732 0.01631436 -0.037072748
0.05601695 -0.11082082 -0.01749282 -0.029396635 0.1311049 -0.049598683 -0.018439775 -0.07392217
0.018250665 -0.03853775 0.03203398 0.13638748 -0.045428436 -0.14109069 0.049029637 0.08024944
0.024938904 0.0778107 0.110637896 0.004133444 -0.08070313 0.023495153 -0.09441997 -0.012218531
-0.0439624 -0.031519663 -0.058859337 -0.08025802 0.054761738 -0.016687375 -0.048810214 0.02782896
-0.021113629 -0.021617288 -0.026660744 -0.04751325 0.01816508 0.08181733 0.008780826 0.013104294
0.0019883357 0.0068618287 -0.039845813 -0.082340166 -0.07146937 -0.031052792 -0.017525852 0.056264494
0.019619437 -0.051571578 0.01420176 0.069571786 0.083559684 -0.036524408 -0.02692681 -0.078743674
0.0356496 -0.0778911 -0.014614195 0.036600664 0.065586604 -0.040769275 0.051574145 0.06327389
0.012148057 0.10361173 0.004417853 0.0028176417 -0.028266774 0.010575858 -0.07000687 0.02517365
-0.03136018 0.005870274 -0.0057802754 -0.016387675 0.08053106 -0.04664476 -0.025862994 0.043299343
0.014174033 0.0043093697 -0.04617083 -0.0646719 0.04821124 0.051526695 0.017383363 0.013986987
-0.003419425 0.037207555 -0.027957223 -0.07673294 -0.064322606 -0.03997176 0.0028930644 0.04345987
-0.0084297685 0.015213947 0.01032005 0.0004565257 0.09505961 -0.07126336 0.0074018566 -0.10812445
0.047798406 0.01538938 -0.08661669 0.04889185 0.04502833 -0.059257522 0.09125627 0.026887115
0.033846054 0.05051658 0.07779623 0.0070240595 -0.050663527 -0.036190875 -0.03024293 0.053019106
-0.0101467995 0.013937482 -0.019812994 -0.062289234 0.0121663 -0.028498236 -0.07758621 0.0010637372
0.0017195794 0.012174024 -0.002477468 -0.049623013 0.023284994 0.053430535 -0.01218283 0.01104907

blocks.0.sa.heads.0.tril f4 [32, 32]
00000000: 0000 803f 0000 0000 0000 0000 0000 0000
00000010: 0000 0000 0000 0000 0000 0000 0000 0000
00000020: 0000 0000 0000 0000 0000 0000 0000 0000
00000030: 0000 0000 0000 0000 0000 0000 0000 0000
00000040: 0000 0000 0000 0000 0000 0000 0000 0000
00000050: 0000 0000 0000 0000 0000 0000 0000 0000
00000060: 0000 0000 0000 0000 0000 0000 0000 0000
00000070: 0000 0000 0000 0000 0000 0000 0000 0000
00000080: 0000 803f 0000 803f 0000 0000 0000 0000
00000090: 0000 0000 0000 0000 0000 0000 0000 0000
000000a0: 0000 0000 0000 0000 0000 0000 0000 0000
000000b0: 0000 0000 0000 0000 0000 0000 0000 0000
000000c0: 0000 0000 0000 0000 0000 0000 0000 0000
000000d0: 0000 0000 0000 0000 0000 0000 0000 0000
000000e0: 0000 0000 0000 0000 0000 0000 0000 0000
000000f0: 0000 0000 0000 0000 0000 0000 0000 0000
00000100: 0000 803f 0000 803f 0000 803f 0000 0000
00000110: 0000 0000 0000 0000 0000 0000 0000 0000
00000120: 0000 0000 0000 0000 0000 0000 0000 0000
00000130: 0000 0000 0000 0000 0000 0000 0000 0000
00000140: 0000 0000 0000 0000 0000 0000 0000 0000
00000150: 0000 0000 0000 0000 0000 0000 0000 0000
00000160: 0000 0000 0000 0000 0000 0000 0000 0000
00000170: 0000 0000 0000 0000 0000 0000 0000 0000
00000180: 0000 803f 0000 803f 0000 803f 0000 803f
00000190: 0000 0000 0000 0000 0000 0000 0000 0000
000001a0: 0000 0000 0000 0000 0000 0000 0000 0000
000001b0: 0000 0000 0000 0000 0000 0000 0000 0000
000001c0: 0000 0000 0000 0000 0000 0000 0000 0000
000001d0: 0000 0000 0000 0000 0000 0000 0000 0000
000001e0: 0000 0000 0000 0000 0000 0000 0000 0000
000001f0: 0000 0000 0000 0000 0000 0000 0000 0000
00000200: 0000 803f 0000 803f 0000 803f 0000 803f
00000210: 0000 803f 0000 0000 0000 0000 0000 0000
00000220: 0000 0000 0000 0000 0000 0000 0000 0000
00000230: 0000 0000 0000 0000 0000 0000 0000 0000
00000240: 0000 0000 0000 0000 0000 0000 0000 0000
00000250: 0000 0000 0000 0000 0000 0000 0000 0000
00000260: 0000 0000 0000 0000 0000 0000 0000 0000
00000270: 0000 0000 0000 0000 0000 0000 0000 0000
00000280: 0000 803f 0000 803f 0000 803f 0000 803f
00000290: 0000 803f 0000 803f 0000 0000 0000 0000
000002a0: 0000 0000 0000 0000 0000 0000 0000 0000
000002b0: 0000 0000 0000 0000 0000 0000 0000 0000
000002c0: 0000 0000 0000 0000 0000 0000 0000 0000
000002d0: 0000 0000 0000 0000 0000 0000 0000 0000
000002e0: 0000 0000 0000 0000 0000 0000 0000 0000
000002f0: 0000 0000 0000 0000 0000 0000 0000 0000
00000300: 0000 803f 0000 803f 0000 803f 0000 803f
00000310: 0000 803f 0000 803f 0000 803f 0000 0000
00000320: 0000 0000 0000 0000 0000 0000 0000 0000
00000330: 0000 0000 0000 0000 0000 0000 0000 0000
00000340: 0000 0000 0000 0000 0000 0000 0000 0000
00000350: 0000 0000 0000 0000 0000 0000 0000 0000
00000360: 0000 0000 0000 0000 0000 0000 0000 0000
00000370: 0000 0000 0000 0000 0000 0000 0000 0000
00000380: 0000 803f 0000 803f 0000 803f 0000 803f
00000390: 0000 803f 0000 803f 0000 803f 0000 803f
000003a0: 0000 0000 0000 0000 0000 0000 0000 0000
000003b0: 0000 0000 0000 0000 0000 0000 0000 0000
000003c0: 0000 0000 0000 0000 0000 0000 0000 0000
000003d0: 0000 0000 0000 0000 0000 0000 0000 0000
000003e0: 0000 0000 0000 0000 0000 0000 0000 0000
000003f0: 0000 0000 0000 0000 0000 0000 0000 0000
1.0 0.0 0.0 0.0 0.0 0.0 0.0 0.0
0.0 0.0 0.0 0.0 0.0 0.0 0.0 0.0
0.0 0.0 0.0 0.0 0.0 0.0 0.0 0.0
0.0 0.0 0.0 0.0 0.0 0.0 0.0 0.0
1.0 1.0 0.0 0.0 0.0 0.0 0.0 0.0
0.0 0.0 0.0 0.0 0.0 0.0 0.0 0.0
0.0 0.0 0.0 0.0 0.0 0.0 0.0 0.0
0.0 0.0 0.0 0.0 0.0 0.0 0.0 0.0
1.0 1.0 1.0 0.0 0.0 0.0 0.0 0.0
0.0 0.0 0.0 0.0 0.0 0.0 0.0 0.0
0.0 0.0 0.0 0.0 0.0 0.0 0.0 0.0
0.0 0.0 0.0 0.0 0.0 0.0 0.0 0.0
1.0 1.0 1.0 1.0 0.0 0.0 0.0 0.0
0.0 0.0 0.0 0.0 0.0 0.0 0.0 0.0
0.0 0.0 0.0 0.0 0.0 0.0 0.0 0.0
0.0 0.0 0.0 0.0 0.0 0.0 0.0 0.0
1.0 1.0 1.0 1.0 1.0 0.0 0.0 0.0
0.0 0.0 0.0 0.0 0.0 0.0 0.0 0.0
0.0 0.0 0.0 0.0 0.0 0.0 0.0 0.0
0.0 0.0 0.0 0.0 0.0 0.0 0.0 0.0
1.0 1.0 1.0 1.0 1.0 1.0 0.0 0.0
0.0 0.0 0.0 0.0 0.0 0.0 0.0 0.0
0.0 0.0 0.0 0.0 0.0 0.0 0.0 0.0
0.0 0.0 0.0 0.0 0.0 0.0 0.0 0.0
1.0 1.0 1.0 1.0 1.0 1.0 1.0 0.0
0.0 0.0 0.0 0.0 0.0 0.0 0.0 0.0
0.0 0.0 0.0 0.0 0.0 0.0 0.0 0.0
0.0 0.0 0.0 0.0 0.0 0.0 0.0 0.0
1.0 1.0 1.0 1.0 1.0 1.0 1.0 1.0
0.0 0.0 0.0 0.0 0.0 0.0 0.0 0.0
0.0 0.0 0.0 0.0 0.0 0.0 0.0 0.0
0.0 0.0 0.0 0.0 0.0 0.0 0.0 0.0

blocks.0.sa.heads.0.key.weight f4 [24, 48]
00000000: 506c 2e3d 78d4 0bbd fe9b e7bc a87f 30bc
00000010: 4d6b 753c 6ed6 3f3c 22c0 4f3d 6bf8 e9bc
00000020: fcf3 0d3d e52d 24bc e31c 9b3d 0042 02bc
00000030: f2c0 1cbc d68e 013d fe1e 6fba 79b4 d8bc
00000040: 1d7d b9bb 0f87 2ebc 0bf7 143c 7d5e 76bb
00000050: 672e 79bb c4ec 54bd d98a 27bd f4db 213d
00000060: 62b1 9abb 0f92 e5bc 4516 c03c a183 01bc
00000070: 8575 a93c 42ed 573d e0ab 8aba 70e7 a63d
00000080: 008c 78bb dd86 46bc ebd0 263d 933f 38bc
00000090: bbdf 4cbc b210 1c3c 9f04 d0bc 720b 033e
000000a0: 3b83 4c3c e837 453a 18f7 d3bd 25a6 97bb
000000b0: 5c11 143d a6f0 423d f99e 55bc 0f46 3abd
000000c0: 93fe a93c b0cd fbbc 56d2 bd3c 2e5b 3abd
000000d0: 7867 0a3d 9739 2cbd dc2b 843c ceb7 e0bc
000000e0: ac9c 823d 35b3 113d 8753 a13b 3e12 283d
000000f0: 1213 24bc ceb4 2f3d 47ea 07bc 59d4 7dbd
00000100: 0884 fd3c 0e26 bfbb 1fb0 d43c abfe 89bd
00000110: e06e 5abd 48d2 683b 9c49 f0bc 4ad4 a53c
00000120: 7311 61bd dc31 58bd d647 273d 004c ef3c
00000130: 6772 2ebd f097 0fbd fa84 7e3c 5724 e5bc
00000140: 2dfa 473d 7944 12bd 8151 acbc feb4 77bd
00000150: e564 84bc 0de6 b03c eff4 c53c 61c9 bb3d
00000160: 36de 0ebc c463 343c e178 66bd bbc7 e4bc
00000170: a5f1 1ebd eb58 86bd f2d0 863d 9f07 463a
00000180: 6ddc 983d e544 c93c bc10 4b3d 4afd 25bd
00000190: cac2 ef3d 5e25 71bd c911 70bc ecd1 2ebd
000001a0: 7dc2 fd3d 6687 bf3d 2101 2dbd 50c0 263d
000001b0: 138b 4fbd 3b2a 763d 9b98 c53c 56fa 96bd
000001c0: 99d9 5d3d 6cfc 0fbd 0eaa b7bc ac48 f6bd
000001d0: 3714 5dbd cdde 08bd c977 95bc 8e5c a43b
000001e0: 7b49 383d 7b03 2ebd 0665 b43c 1dfc d8bc
000001f0: 11e7 cfbc afe1 d7bc 00c1 1abd d074 ebbd
00000200: 4f07 013c d744 9c3c ae3b 003d 8bf3 27bc
00000210: 1591 2a3d 8d5d 3abd 585c 8d3d 38c5 4e3e
00000220: a5e2 043d ea4a 5c3d 1e66 a33c b451 02bd
00000230: a772 4abc c962 3fbd 5c93 b63d 29b9 3fbc
00000240: de44 983d 94db fcba 6b30 733c dd86 ff3c
00000250: b421 88bd 0ecb 3bbc 3649 05bd 6669 99bc
00000260: 1293 8d3d 6644 593d 1a81 303d c81b ef3c
00000270: 271e abbc 893f 373d fd02 6abc 922b a8bc
00000280: c5a1 413d 86a7 8dbc 7e1c f73c 21b4 283d
00000290: 589a 2dbb d7c0 183d f1e6 19bd b76f 28bd
000002a0: dde0 1ebc 309e 50bd 0972 803c ce3c c03d
000002b0: 34d0 023d 83ca d23c a4cc 333c 784c 713d
000002c0: 1e06 1dbd 26eb adbc 1f41 5d3c 127d 44bd
000002d0: ccd4 05be 43bf 563d 7cc4 2e3b 3f63 1d3d
000002e0: ed2e db3c c4e8 acbd aee0 5cbc 9fff cb3b
000002f0: 6b48 b7bd 4978 653d 1021 acbc 7c3f 40bd
00000300: 077e f53b 52db 87bc 987d bdbb 35de babd
00000310: 450f 443a 56b0 db3c af6c 083d 0adb 983b
00000320: 6497 2dbd 3026 79bd 13e3 fa3c aab3 1fbd
00000330: fefb 1d3d 4099 cbbc acf6 57bc 8e56 0dbd
00000340: 3710 103d 6cae 06bc 710e a3bb c7c6 22bd
00000350: 7765 b3bd 3bf6 5d3c e9b7 9b3c cece 8bbc
00000360: 9bcf 60bb fca4 893c fc79 6e3c 47a2 07bd
00000370: ff04 a4bd 46c5 c93c 7e7e 6a3d 683a 77bd
00000380: f5d9 d4bc 86b9 5a3c 93b2 45bd dab3 a3bc
00000390: 7ad8 683b 8344 873d 9c01 8dbb b816 973d
000003a0: da9e efbb 5f68 31ba 78ff b7bd 23ac c03c
000003b0: 1a07 be3d 3a09 ab3b 850e f03a 08d8 5e3c
000003c0: 0115 243d 4a24 44bd cf71 19bb 603d 8f3c
000003d0: 6b11 aabd 98eb 063c c2d6 24bd c23d cdbc
000003e0: dc7f d8bc 0606 afbc 021d f53c ad25 d13c
000003f0: 6553 33bd 0d1b c9bc effe 30bd 751b cdbc
0.042583764 -0.034138173 -0.028272625 -0.010772623 0.014979196 0.011708839 0.05072034 -0.028560838
0.03465651 -0.010020708 0.07573869 -0.007950306 -0.009567486 0.03163036 -0.00091217447 -0.026453244
-0.0056606666 -0.010652318 0.009092103 -0.003759294 -0.0038022043 -0.05198361 -0.0409039 0.039516404
-0.0047208527 -0.028023748 0.023448119 -0.007904918 0.02068592 0.0527165 -0.0010579787 0.08149612
-0.0037925243 -0.012117115 0.040726583 -0.011245626 -0.012504513 0.009525465 -0.025392829 0.12797335
0.01248246 0.00075232843 -0.10349864 -0.0046279603 0.036149368 0.04759278 -0.01303839 -0.04547697
0.020751273 -0.030737728 0.023171585 -0.045497112 0.03379008 -0.04204711 0.016134195 -0.027431395
0.06377539 0.035571296 0.0049232873 0.041033022 -0.010014312 0.04289704 -0.008295602 -0.06197009
0.030946746 -0.005833394 0.025962887 -0.06738027 -0.053328395 0.0035525728 -0.029331975 0.020242829
-0.05494828 -0.052781925 0.040839992 0.029211044 -0.04258957 -0.03505701 0.015534634 -0.02797143
0.04882257 -0.035709832 -0.021034958 -0.060475342 -0.016161392 0.021594072 0.024164645 0.09169269
-0.008719971 0.011010114 -0.056267623 -0.02792727 -0.03880467 -0.065599285 0.06582822 0.0007554236
0.07463918 0.024568984 0.049576506 -0.04052476 0.11707075 -0.058873527 -0.014652678 -0.042680666
0.12390611 0.09351997 -0.042237405 0.040710747 -0.05066974 0.060098868 0.02412062 -0.073719665
0.054162595 -0.035152838 -0.022419956 -0.1202558 -0.053974357 -0.033415604 -0.018245595 0.005015916
0.04499195 -0.042483788 0.022020828 -0.026487404 -0.025378736 -0.026352732 -0.037781715 -0.114968896
0.007875278 0.019075794 0.031306915 -0.010250936 0.041642267 -0.045499373 0.06902379 0.2019242
0.032442708 0.05378238 0.019946154 -0.0318162 -0.012356437 -0.04672507 0.08914825 -0.01170186
0.074350104 -0.0019291514 0.014843087 0.031192238 -0.06647053 -0.011461986 -0.032540523 -0.018727016
0.06912817 0.053043745 0.04309187 0.029188052 -0.020888401 0.044738326 -0.014282939 -0.020528588
0.047273416 -0.017291795 0.030164953 0.04118741 -0.00264897 0.03729328 -0.03757376 -0.041122165
-0.009697166 -0.05093211 0.015679376 0.093865976 0.03193684 0.02573133 0.010974083 0.058910817
-0.038335912 -0.021230292 0.013504296 -0.04797084 -0.13069457 0.052428495 0.0026667407 0.038424727
0.026755774 -0.08442834 -0.013481302 0.006225541 -0.089493595 0.056022916 -0.02101186 -0.046935543
0.0074918303 -0.016584072 -0.005782794 -0.09124414 0.0007479082 0.026817482 0.033306774 0.0046647834
-0.042380705 -0.060827434 0.030625856 -0.0389897 0.038570397 -0.024853349 -0.01318137 -0.034506373
0.035171714 -0.008220296 -0.004976087 -0.03974035 -0.08759587 0.013547475 0.019008594 -0.017066386
-0.003430343 0.016802303 0.0145554505 -0.033113744 -0.080087654 0.0246302 0.05724954 -0.060358435
-0.025982836 0.013349896 -0.048266005 -0.01998322 0.003552942 0.066048644 -0.0043031704 0.0737738
-0.0073126378 -0.00067675667 -0.08984274 0.023519581 0.09278698 0.0052196058 0.0018314874 0.013601311
0.040059093 -0.04788617 -0.0023413782 0.01748532 -0.083041035 0.008234881 -0.04024387 -0.025053862
-0.026428156 -0.021365177 0.029921059 0.02553066 -0.043780703 -0.024549032 -0.043211874 -0.025037507

blocks.0.sa.heads.0.query.weight f4 [24, 48]
00000000: abd6 afbd d7ec 833d 33f5 e33c e876 c5bb
00000010: 9f28 c53b a759 a2bc c826 6cbd a911 5b3d
00000020: 5e41 fe3b f806 4cbc f110 20bd 7f71 dcbc
00000030: d129 043c e7c8 9fbc 12ad f63c bb57 a83c
00000040: 9f9b e13c f26f 133d d485 b73b f3eb 52bd
00000050: 87b9 153d 3314 f73c 0a03 0bbc 1066 813d
00000060: b42c a6bc 0323 ff3c 8a5b 3a3d 7d87 113d
00000070: cee7 c33c 325c debc 61d7 12bd ce9e 83bd
00000080: 886a d4b8 2f02 3cbd 5ad3 c1ba 8845 403b
00000090: c04a eebb 716c 37bd 6a72 ba3c c08e 9c3c
000000a0: cd8e 5f3c 5598 263c fd5e e0bc 336c a93c
000000b0: 3140 903c fba5 1a3d 5b52 96bb 3b97 a63d
000000c0: 694b 0dbc 2b82 31ba 18de d93a 931a 15bd
000000d0: b973 9e3c 665f 783b d20b a4bc 6fd6 f03b
000000e0: ea04 1e3c ad05 5a3d 399a c2bb 71ea a0bd
000000f0: ca4f fbbc c04b 3b3b 5fde 19bd e7b6 d23c
00000100: 7a73 faba 08d0 b63b 761d 903b 2c80 dabc
00000110: d3ad 933a d5f7 65bc e4fb 14bc d4bf ebbc
00000120: 707c 663d af2c 4ebd 862b 53bc 2a19 1d3d
00000130: 26e6 993d cf6d e4b8 e1fc 29bd 1aae a8bb
00000140: bca8 49bc 7d32 a5bc 7abd 4e3d 5afb 923d
00000150: be07 94bb 8b39 2dbd 1527 c93c 8cd7 7d3c
00000160: a9d6 cc3c 3b27 b23c b757 763d 67eb c4bc
00000170: cbd0 c2bc 5fb4 233d 94e7 88bd face 08bc
00000180: 8eed babc 2add abba a923 9b3c 0058 dc3c
00000190: eaf1 84bc f163 383c 7be4 ddbc f219 013d
000001a0: a1ae 06bd 086b efbc 79cc 7ebd 5e1a 8abd
000001b0: c526 84bb f608 c13c dbff 5fbd 315d 873d
000001c0: 426c 0abd f86a fc3c 9416 cf3b 19ab 373d
000001d0: fa89 5d3d 7a39 ad3c 29d4 553c 9d3f 64bd
000001e0: e5d0 9b3d b7ab bcbc 618c 70bc 1fe0 c1bd
000001f0: 7b89 313d 1618 163d 3109 f3bb 52f5 43bd
00000200: 51e2 603c 94fe 19bb 6c84 b8bb f814 043e
00000210: 473d 85bb f4c7 a2bd 7ddf a2bc 55ac 7fbd
00000220: b03c ea3c a245 413d 2259 2c3e aac5 513c
00000230: 4c42 92bd 8b1d 263d f899 05bd 544a 1c3c
00000240: d7d8 abba 5d3d af3d 5766 9a3d 2455 ad3c
00000250: c832 463c 7a27 abbc 7f8a 02be c76c 11bd
00000260: dfa1 283d defc f73b 4978 af3b 0abd 5cbc
00000270: f6d3 9cba ccd1 133c de18 13b9 f570 7b3b
00000280: 9b8e 4cbc 34c8 563d d239 433d 2195 5ebc
00000290: 3412 febb d9a7 29bd aa33 2cbb f68d aa3c
000002a0: 93bf e5bc 0f3f 283d 79fe b0bb 21a1 9ebd
000002b0: 93a6 063e 0600 76bc a00e f43b 7361 c93d
000002c0: f2f0 a1bb 346b 0a3d 44b0 d43c 5bc4 53bb
000002d0: fda6 03be f281 8ebd c6dc 36bb 3374 e33c
000002e0: 6844 903c 89e2 6b3c 2711 52bd 3281 fe3c
000002f0: 3281 bbbd 942a 28bd 8c55 cbba 1ad0 a7bd
00000300: 78dc d3bc 48b8 a8bb df4c 6dbd c597 92bd
00000310: af93 48bb 90c6 a53c 685f 223d 7dd1 693c
00000320: c019 863c c682 e3bb 2927 503d aebc 523d
00000330: dd04 e83c 9dc2 593c 6e2f 6c3c 968c 0fbd
00000340: 2eab 41bc 08f4 15bd 6051 30bd d016 e5bc
00000350: e170 53bb abe1 9d38 bc51 f93c 7bb8 283d
00000360: 460f 63bb 43f0 b63c ded2 c23b f7ba ccba
00000370: 23b5 d8bd de37 4bbc afe5 cc3d 45e8 67bd
00000380: c41b 5dbd 5a5c 84bd bcec 22bd cd9e 56bd
00000390: 5fb6 b23c bf0c 373d 4fca f43c 2917 1d3d
000003a0: 653a a0bc 9110 053d 9d22 51be 7d80 953d
000003b0: de31 b63d b6af 07bd 3c28 083d df45 1e3d
000003c0: f251 56ba 5fdb 17bd dde7 173c 14bc 09bd
000003d0: b025 723c 8aa0 90bb 4d30 e2bd f5b9 5a3b
000003e0: 264f ccbc ae67 68bc 2967 2b3d f066 053d
000003f0: 5417 5abc 8e01 833c ba30 003d 0a08 17bd
-0.085858665 0.06441658 0.027826881 -0.0060261376 0.0060168053 -0.01981814 -0.057654172 0.05348364
0.007759257 -0.012452833 -0.039078657 -0.026909588 0.00806661 -0.019504977 0.030111823 0.020549646
0.027540026 0.03599543 0.0056006704 -0.05149455 0.036553886 0.030160999 -0.008484611 0.06318295
-0.020284988 0.031144625 0.045497455 0.035529602 0.023914244 -0.027143572 -0.035849933 -0.06426774
-0.00010128791 -0.04590052 -0.0014787719 0.002933832 -0.0072720945 -0.044781152 0.022759635 0.019111037
0.013644886 0.010168155 -0.027389044 0.020681476 0.017608734 0.037755948 -0.0045874543 0.08134314
-0.008623936 -0.00067714107 0.0016621975 -0.036402296 0.01934229 0.0037898659 -0.020025168 0.007349781
0.009644726 0.05322807 -0.005938795 -0.07857216 -0.030677695 0.0028579086 -0.037565585 0.02572198
-0.0019107901 0.0055789985 0.0043980433 -0.026672445 0.0011267014 -0.014036139 -0.0090932585 -0.028777994
0.056271017 -0.050335582 -0.012888795 0.038354076 0.075146005 -0.00010892341 -0.04150093 -0.0051477076
-0.012308296 -0.020165676 0.050473668 0.07176848 -0.0045175245 -0.042291205 0.024554769 0.015493285
0.025004702 0.021747222 0.060142245 -0.02403803 -0.0237812 0.039966937 -0.06684795 -0.008350128
-0.022818353 -0.0013112177 0.018937903 0.02689743 -0.016228635 0.011254297 -0.027086487 0.031518884
-0.032881383 -0.029225841 -0.06220672 -0.067433104 -0.004032942 0.023563843 -0.054687362 0.06609572
-0.03379465 0.030812725 0.00631983 0.044840906 0.054086663 0.021145571 0.013051071 -0.05572473
0.07608203 -0.023031099 -0.014681906 -0.09466576 0.043344002 0.036644064 -0.007416867 -0.047841378
0.013725833 -0.0023497688 -0.0056310203 0.12898624 -0.0040661427 -0.07948294 -0.019881958 -0.062420208
0.028593391 0.047185548 0.16830876 0.012803474 -0.071415514 0.040555518 -0.03261754 0.009539206
-0.0013110888 0.08556626 0.07539051 0.021158762 0.012097068 -0.020892847 -0.12748145 -0.03550413
0.041169997 0.007567986 0.0053549153 -0.013472805 -0.0011965025 0.009022187 -0.00014028276 0.0038366888
-0.012485172 0.052437022 0.047662564 -0.01358536 -0.007753635 -0.041419838 -0.0026275911 0.020819645
-0.028045451 0.041075762 -0.0054014293 -0.07745577 0.1314948 -0.015014654 0.0074480325 0.0983304
-0.004942053 0.033793643 0.025962956 -0.0032313082 -0.1285667 -0.06958379 -0.0027902587 0.027765369
0.017610744 0.014397272 -0.05128589 0.031067465 -0.091555014 -0.04105623 -0.0015513166 -0.08193989
-0.025861964 -0.005148921 -0.057934638 -0.07157854 -0.0030605604 0.020236284 0.039641768 0.014271137
0.0163697 -0.0069430796 0.050818596 0.05144947 0.028322631 0.013291028 0.014415605 -0.035046183
-0.011820598 -0.03660968 -0.043046355 -0.02796498 -0.0032263326 7.528377e-05 0.030434482 0.04119156
-0.0034646555 0.022331363 0.0059455475 -0.0015619685 -0.10581424 -0.0124034565 0.10004746 -0.056617994
-0.053981557 -0.06462927 -0.03977655 -0.052397538 0.021815477 0.04468989 0.029881625 0.038352165
-0.019559095 0.032486502 -0.2042336 0.07299898 0.0889623 -0.033126555 0.033241495 0.038640853
-0.0008175663 -0.037074443 0.009271589 -0.03362663 0.014779493 -0.004413669 -0.11044369 0.0033375
-0.024940085 -0.014184875 0.041846428 0.032568872 -0.013311226 0.015991952 0.03129647 -0.0368729

blocks.0.sa.heads.0.value.weight f4 [24, 48]
00000000: 26bb 9ebd 7cda 233c 8a02 283c 8315 8a3d
00000010: 8dc2 a7bd 3e52 80bc a5e3 eb3d 2d25 393d
00000020: aee0 643d 6796 81bb 7718 cc3c 2a4d 1ebd
00000030: 217a 3c3d c90f 52bd ce2f 59bd 5bb8 7bbd
00000040: a14a e73c 0ff8 18bd c7bc 40bd 1cb9 c9bd
00000050: 1d68 aa3d 2663 fabd 7e2d e23c 7324 243d
00000060: 485e 3e3e bed2 bf39 58b9 1dbc ce34 f8bd
00000070: da53 263c b4fe e3bc 4743 0f3d 3eae 97bd
00000080: d22b ab3c 1039 9abc bb0f d73c c0f1 89bd
00000090: 14e9 2b3c 26d8 503d 2c34 80bd eb8e 013d
000000a0: fe4f 3939 30ca 6ebc 1024 2e3d 4c4b 323d
000000b0: e4a8 653d 22a7 343d 7ba6 e1bc 0a7e 853d
000000c0: bf36 7bba 6851 77bc 9a17 b8bd f4eb 583c
000000d0: e5f2 9dbd 29fd a6bd 625b bc3d 82e5 913d
000000e0: 6daa 023d cf69 a7bc 69b1 783d eb7e 193c
000000f0: 382e a4bd daeb a9bc c2e6 8d3d 398a 89bd
00000100: 346d d73d 8929 5e3e aa28 f1bc 9416 a2bb
00000110: 8374 693d d470 783c 8b1f 06bd ae0f 8cbc
00000120: 0fca 06be eec0 d7bd 876f fabd 36a9 4bbd
00000130: 9bf9 95bc 4211 00bd d006 883d d3d4 2ebd
00000140: 344e 4cbd 9543 0ebd b40c 223d f4f1 bfbc
00000150: 3139 ec3c 1158 0bbd 48a1 febb e7b5 88bb
00000160: 7a43 263d e495 4a3d 90f0 a6bc 0d6b 993d
00000170: 1c60 fd3c 70ac 5e3d ae13 19bd 4852 033e
00000180: cec4 88bd 3a6d bc3d 20db 85bc 9e08 843d
00000190: e659 d9bb 0c08 7f3d 658c 85ba 2fdb 06bd
000001a0: 877f f4bc 024d be3d 6d92 b9bd 6355 55bc
000001b0: a41e 2f3e 20b7 2f3d 270f 37bd d64d 7bbc
000001c0: 7232 bc3d 51bf 27be aee9 7f3d 483f b4bd
000001d0: 57e4 753c c1cd 58bd 6986 dabb 4ecd 513d
000001e0: 162b a93d f1b6 243c 0504 a0bd 8459 373c
000001f0: 847a 213d 828d 213d a074 f8bc 83b4 1c3d
00000200: 8259 383d abab bd3c c81f b63b c5fb 03bd
00000210: b9f2 e0bd 6031 8ebc c9f5 a6bd cb03 1a3c
00000220: f759 273c 0017 8d3a 761c 143d 204d 9dbd
00000230: 62f8 5abc 5a2d 53bd 362e 8d3d ad98 44bd
00000240: 9979 28be 4606 0a3e 03b3 5e3c 111f e4bd
00000250: aff8 89bd 6156 c8bd f60e aa3d 8c59 ba3d
00000260: 8d69 b53d 0900 233e ca02 dbbd 9d39 3abc
00000270: 7fd6 713d d9da a8bd 8dfe a13d fb10 89bd
00000280: 948c 99bd d386 30bb 6cc3 83bc 2f96 163c
00000290: caea 36bd 2b9f a83d 575a 26bd ed6f f73d
000002a0: 77e4 8abd 062e 4ebc a0df f03c ae06 a5bc
000002b0: e4b5 913d b3b4 923d 1d71 01bd ecf6 9fbc
000002c0: 5d1e 30be f6e1 90bd 2f3c 123d 5c05 fc3d
000002d0: 92e2 0c3c b562 593d b6d1 113d 6202 a43d
000002e0: 7d42 08bd 1bde fd3d dcca 34be a70b c2bd
000002f0: cf1b 2b3d 3e0e fbbd e86f 513d f952 fabd
00000300: 15b0 1e3d d35d 98bc 7798 5abe 9516 d4bb
00000310: 7bee 983d cb64 5f3d db14 013d 75f2 bdbd
00000320: 4e7d ee3c a12f 553c d46c 01be e94f 0cbc
00000330: 4581 253d 4c2d 11bd d9b4 b7bc 09bf 333d
00000340: 38da 483e e175 09be e3bb 04bc 5036 0b3d
00000350: c29c 613d a503 803c 3449 b43d 164d 2c3e
00000360: 736b 31bb 19d1 bbbc 78e9 7dbe 0e9d 9b3c
00000370: 2203 53bd 591f fa3c 7ca9 18bd bf45 92bc
00000380: 1939 a83d 30eb 283d 6f06 2a3b 94f8 fabc
00000390: c7cf 01be 8abe ebbd 2e3c 2cbc 0685 99bb
000003a0: 00b8 a73d 2e4f efbd d2e8 bebd 5053 f43d
000003b0: c406 1dbc 07f9 d5bc 5d25 a53c 7d5a 383e
000003c0: d4bc c9bd 1cf4 bf3c e3e8 1a3d 95e4 553d
000003d0: e6ad a2bd aa11 c13c aeed 0e3e 4554 89bd
000003e0: 110c 06bd 433e 9ebd af83 073c f69b 4abc
000003f0: 8665 693d 010d 5cbd de8f 983d e5a6 dabd
-0.077505395 0.010000821 0.010254512 0.06742384 -0.081914045 -0.015664216 0.11518029 0.04520147
0.055878334 -0.003954697 0.02491401 -0.038647808 0.04601491 -0.051284585 -0.053024106 -0.061455112
0.028233828 -0.037345942 -0.047055032 -0.0984976 0.08320639 -0.12225942 0.027609583 0.040073823
0.18590653 0.00036587374 -0.009626709 -0.12119447 0.010151828 -0.027831413 0.03497627 -0.07406281
0.020894919 -0.018826038 0.026252618 -0.06735563 0.010492582 0.050987385 -0.06259951 0.031630438
0.00017672774 -0.014574572 0.04251486 0.04352884 0.05606927 0.044104703 -0.027545204 0.06518181
-0.0009583048 -0.015095092 -0.08988877 0.013239849 -0.07712344 -0.08153755 0.091971174 0.07123853
0.031900812 -0.020436196 0.060716067 0.0093686385 -0.08016628 -0.020742346 0.06928779 -0.06715817
0.10518876 0.21695532 -0.029438335 -0.004946539 0.05699588 0.015163619 -0.032744925 -0.01709732
-0.13163017 -0.10534845 -0.122283034 -0.04972192 -0.018307498 -0.03126646 0.066419244 -0.042683434
-0.049879268 -0.03473242 0.039562896 -0.023430802 0.028835865 -0.034019534 -0.007770691 -0.004172075
0.040591694 0.049459353 -0.020378381 0.074911214 0.030929618 0.054363668 -0.037372284 0.12824357
-0.066781625 0.09200521 -0.016339839 0.06446956 -0.006633031 0.062263533 -0.0010188936 -0.032923874
-0.029845966 0.09292032 -0.090611316 -0.013020846 0.17101532 0.04289925 -0.044692185 -0.015338382
0.09189309 -0.16381575 0.062478714 -0.088011324 0.015008054 -0.052930597 -0.006668855 0.051221184
0.08260171 0.010053382 -0.07813267 0.011190776 0.03942348 0.039441593 -0.030329049 0.038258087
0.045007236 0.023153147 0.005557988 -0.032222528 -0.10983796 -0.017357528 -0.081523485 0.009400318
0.01021432 0.0010764301 0.036159955 -0.07680726 -0.013364883 -0.051556922 0.0689358 -0.047997165
-0.16452636 0.13478956 0.013592484 -0.11138738 -0.06736886 -0.097821005 0.08303635 0.09099111
0.08858023 0.15917982 -0.10693891 -0.011366275 0.05904245 -0.08244867 0.0790988 -0.06692692
-0.07497516 -0.002693583 -0.016084395 0.00919108 -0.044657506 0.08233484 -0.0406135 0.12081895
-0.067818575 -0.012584215 0.029403508 -0.020144787 0.07114771 0.07163372 -0.031602014 -0.019526921
-0.17199083 -0.07074349 0.035701927 0.1230571 0.00859894 0.05307265 0.035600387 0.08008267
-0.033266533 0.12395879 -0.1765551 -0.09474879 0.041774567 -0.12258576 0.051132113 -0.12222857
0.038742144 -0.018599426 -0.21347223 -0.0064724186 0.074673615 0.054539483 0.03151403 -0.09274761
0.029112484 0.013011844 -0.12639171 -0.008563974 0.040406484 -0.03544359 -0.022425102 0.043883357
0.19614494 -0.13423873 -0.008101436 0.033987343 0.055081137 0.015626738 0.08803025 0.16826281
-0.0027072101 -0.022926854 -0.24796093 0.018995788 -0.05151666 0.030532526 -0.037271008 -0.017855523
0.082140155 0.041239917 0.0025943776 -0.03063611 -0.12676917 -0.11510952 -0.010512395 -0.004685047
0.08189392 -0.11685024 -0.09321751 0.11929953 -0.009584133 -0.026119722 0.020159418 0.18003269
-0.09850469 0.02343183 0.037819754 0.052219946 -0.07943325 0.023567993 0.13957855 -0.06705526
-0.03272635 -0.07726719 0.008271142 -0.012366286 0.056981586 -0.05372334 0.074493155 -0.10676364

blocks.0.sa.heads.1.tril f4 [32, 32]
00000000: 0000 803f 0000 0000 0000 0000 0000 0000
00000010: 0000 0000 0000 0000 0000 0000 0000 0000
00000020: 0000 0000 0000 0000 0000 0000 0000 0000
00000030: 0000 0000 0000 0000 0000 0000 0000 0000
00000040: 0000 0000 0000 0000 0000 0000 0000 0000
00000050: 0000 0000 0000 0000 0000 0000 0000 0000
00000060: 0000 0000 0000 0000 0000 0000 0000 0000
00000070: 0000 0000 0000 0000 0000 0000 0000 0000
00000080: 0000 803f 0000 803f 0000 0000 0000 0000
00000090: 0000 0000 0000 0000 0000 0000 0000 0000
000000a0: 0000 0000 0000 0000 0000 0000 0000 0000
000000b0: 0000 0000 0000 0000 0000 0000 0000 0000
000000c0: 0000 0000 0000 0000 0000 0000 0000 0000
000000d0: 0000 0000 0000 0000 0000 0000 0000 0000
000000e0: 0000 0000 0000 0000 0000 0000 0000 0000
000000f0: 0000 0000 0000 0000 0000 0000 0000 0000
00000100: 0000 803f 0000 803f 0000 803f 0000 0000
00000110: 0000 0000 0000 0000 0000 0000 0000 0000
00000120: 0000 0000 0000 0000 0000 0000 0000 0000
00000130: 0000 0000 0000 0000 0000 0000 0000 0000
00000140: 0000 0000 0000 0000 0000 0000 0000 0000
00000150: 0000 0000 0000 0000 0000 0000 0000 0000
00000160: 0000 0000 0000 0000 0000 0000 0000 0000
00000170: 0000 0000 0000 0000 0000 0000 0000 0000
00000180: 0000 803f 0000 803f 0000 803f 0000 803f
00000190: 0000 0000 0000 0000 0000 0000 0000 0000
000001a0: 0000 0000 0000 0000 0000 0000 0000 0000
000001b0: 0000 0000 0000 0000 0000 0000 0000 0000
000001c0: 0000 0000 0000 0000 0000 0000 0000 0000
000001d0: 0000 0000 0000 0000 0000 0000 0000 0000
000001e0: 0000 0000 0000 0000 0000 0000 0000 0000
000001f0: 0000 0000 0000 0000 0000 0000 0000 0000
00000200: 0000 803f 0000 803f 0000 803f 0000 803f
00000210: 0000 803f 0000 0000 0000 0000 0000 0000
00000220: 0000 0000 0000 0000 0000 0000 0000 0000
00000230: 0000 0000 0000 0000 0000 0000 0000 0000
00000240: 0000 0000 0000 0000 0000 0000 0000 0000
00000250: 0000 0000 0000 0000 0000 0000 0000 0000
00000260: 0000 0000 0000 0000 0000 0000 0000 0000
00000270: 0000 0000 0000 0000 0000 0000 0000 0000
00000280: 0000 803f 0000 803f 0000 803f 0000 803f
00000290: 0000 803f 0000 803f 0000 0000 0000 0000
000002a0: 0000 0000 0000 0000 0000 0000 0000 0000
000002b0: 0000 0000 0000 0000 0000 0000 0000 0000
000002c0: 0000 0000 0000 0000 0000 0000 0000 0000
000002d0: 0000 0000 0000 0000 0000 0000 0000 0000
000002e0: 0000 0000 0000 0000 0000 0000 0000 0000
000002f0: 0000 0000 0000 0000 0000 0000 0000 0000
00000300: 0000 803f 0000 803f 0000 803f 0000 803f
00000310: 0000 803f 0000 803f 0000 803f 0000 0000
00000320: 0000 0000 0000 0000 0000 0000 0000 0000
00000330: 0000 0000 0000 0000 0000 0000 0000 0000
00000340: 0000 0000 0000 0000 0000 0000 0000 0000
00000350: 0000 0000 0000 0000 0000 0000 0000 0000
00000360: 0000 0000 0000 0000 0000 0000 0000 0000
00000370: 0000 0000 0000 0000 0000 0000 0000 0000
00000380: 0000 803f 0000 803f 0000 803f 0000 803f
00000390: 0000 803f 0000 803f 0000 803f 0000 803f
000003a0: 0000 0000 0000 0000 0000 0000 0000 0000
000003b0: 0000 0000 0000 0000 0000 0000 0000 0000
000003c0: 0000 0000 0000 0000 0000 0000 0000 0000
000003d0: 0000 0000 0000 0000 0000 0000 0000 0000
000003e0: 0000 0000 0000 0000 0000 0000 0000 0000
000003f0: 0000 0000 0000 0000 0000 0000 0000 0000
1.0 0.0 0.0 0.0 0.0 0.0 0.0 0.0
0.0 0.0 0.0 0.0 0.0 0.0 0.0 0.0
0.0 0.0 0.0 0.0 0.0 0.0 0.0 0.0
0.0 0.0 0.0 0.0 0.0 0.0 0.0 0.0
1.0 1.0 0.0 0.0 0.0 0.0 0.0 0.0
0.0 0.0 0.0 0.0 0.0 0.0 0.0 0.0
0.0 0.0 0.0 0.0 0.0 0.0 0.0 0.0
0.0 0.0 0.0 0.0 0.0 0.0 0.0 0.0
1.0 1.0 1.0 0.0 0.0 0.0 0.0 0.0
0.0 0.0 0.0 0.0 0.0 0.0 0.0 0.0
0.0 0.0 0.0 0.0 0.0 0.0 0.0 0.0
0.0 0.0 0.0 0.0 0.0 0.0 0.0 0.0
1.0 1.0 1.0 1.0 0.0 0.0 0.0 0.0
0.0 0.0 0.0 0.0 0.0 0.0 0.0 0.0
0.0 0.0 0.0 0.0 0.0 0.0 0.0 0.0
0.0 0.0 0.0 0.0 0.0 0.0 0.0 0.0
1.0 1.0 1.0 1.0 1.0 0.0 0.0 0.0
0.0 0.0 0.0 0.0 0.0 0.0 0.0 0.0
0.0 0.0 0.0 0.0 0.0 0.0 0.0 0.0
0.0 0.0 0.0 0.0 0.0 0.0 0.0 0.0
1.0 1.0 1.0 1.0 1.0 1.0 0.0 0.0
0.0 0.0 0.0 0.0 0.0 0.0 0.0 0.0
0.0 0.0 0.0 0.0 0.0 0.0 0.0 0.0
0.0 0.0 0.0 0.0 0.0 0.0 0.0 0.0
1.0 1.0 1.0 1.0 1.0 1.0 1.0 0.0
0.0 0.0 0.0 0.0 0.0 0.0 0.0 0.0
0.0 0.0 0.0 0.0 0.0 0.0 0.0 0.0
0.0 0.0 0.0 0.0 0.0 0.0 0.0 0.0
1.0 1.0 1.0 1.0 1.0 1.0 1.0 1.0
0.0 0.0 0.0 0.0 0.0 0.0 0.0 0.0
0.0 0.0 0.0 0.0 0.0 0.0 0.0 0.0
0.0 0.0 0.0 0.0 0.0 0.0 0.0 0.0

blocks.0.sa.heads.1.key.weight f4 [24, 48]
00000000: 2d37 293c 91a9 d43c 76ff 5d3d 8c9b a33d
00000010: 5ca1 bfbd 0f01 253d 1ad5 0dbd c098 f1bc
00000020: 7d14 0b3d d812 ffbc 141b 093d 2625 ba3d
00000030: 0b21 523c 263c 0ebe fb01 d1bc 2cf8 62bd
00000040: 065d 893c a614 d6bc 1d69 cc3b bb5c 133e
00000050: 8104 e63d 395b ac3d c5ac f4bc 47a9 29bd
00000060: 772d f3bc ca5c a23d e6db a3bc f77a 84bc
00000070: 4297 b1be 7e19 fa3d c3c7 f63c a328 5f3d
00000080: 0919 b0bd 9e19 b53c 09c9 86bc 240d 78bd
00000090: 1c33 57bd 1df4 5f3d 4553 8bbd 794a 58be
000000a0: 980b 0bbd c999 e3bd d6de fabc 3ed1 59bb
000000b0: 380b 283c 538d c03b ff4c 903b 413e 5abd
000000c0: 4fe8 893b 1499 d0bb 0f06 2c3d e362 953d
000000d0: 55fe 24be a3cd 483d 8398 eabb 8f88 b5bc
000000e0: 376c 60bb 1a8d 963c 3a67 823d eac3 b63d
000000f0: 838f 4ebc 2a87 f1bd ffb8 9ebc 5cf4 75bd
00000100: af4d 063c a899 1b3c d65e 453d 4ffe 0b3e
00000110: 8cf4 0a3e bb1d cc3d fe5c b7bc 911b 82bd
00000120: 50b6 3fbd 585d 1f3d 4c39 4bbc da9a 7e3c
00000130: 35d1 a5be 943a a83d 74b5 003c de74 373d
00000140: b643 a3bd a8cb 993d 6d8a 953c 6635 8dbd
00000150: 1136 83bd 85d8 9f3d 0032 7dbd 36cb 2fbe
00000160: 41b3 3abc 1229 7ebd 9645 84bd 473c ad3c
00000170: 78b5 633d 6a86 e33c 8112 5ebc d28a 7ebd
00000180: e459 003a 94fa 713d 5f63 8c3d d496 da3d
00000190: d3c0 4bbd b5dd a53c 4d0c 43bc ba27 923b
000001a0: 8670 6cb9 b385 25bd 8698 7f3c 324c b93d
000001b0: 0988 15bc 59bf 0fbe 0954 bdbc 57c3 35bd
000001c0: dcc6 28bc 7af8 713c ee9f 79bc 1788 fc3d
000001d0: 6686 193e 63cf bd3d 6cb9 b3bb 17f7 9ebd
000001e0: daa0 6cbd fa16 b73d 59e4 5bbb 56be e239
000001f0: 2828 b2be 520d 573d 2e31 3e3d f1fc 6d3d
00000200: bdc9 62bd b5de a13d 7011 4abc 1d23 a1bd
00000210: db21 99bd eeb1 a43d 8116 b3bd d89c 6cbe
00000220: da5c 7bbd 9f9d c4bd db82 84bd 2d42 803c
00000230: 05ce 063d e499 283c 0cc2 5c3d 9711 4fbd
00000240: 1ac1 fabb cac6 123d f785 f2bc bf8f 023e
00000250: a81d 87bc a8d4 6dbc 99ce 593d 489f 3abd
00000260: 69b7 33bb 6b94 a43c 7d3b 55bd 06ea c73c
00000270: 11b7 703b e5a9 03be 9752 a93b ecf3 4abd
00000280: d406 d0bc 5b5c e6bc 1e2c a9bc 0d2c d03d
00000290: e1ee 1d3d 2749 f03d d86a 013d 3be9 95bd
000002a0: a2f0 0dbd 417a bd3d daa1 273d 3e73 38bd
000002b0: 2cde bfbe feac 4f3d 07b1 003a d509 d83c
000002c0: f52e 7bbd bdf6 903d e9ec 79bd 36d9 d7bc
000002d0: 82b9 7e3d 6b34 923d ebac 00bd 35c0 cbbe
000002e0: 3ee7 12bd c13d 1abe 4079 a13d be15 0dbd
000002f0: eeed e03d 637a 0bbe c558 083e f7e6 623c
00000300: 9103 01bd 3b1b 22bd 20ab 58bd 7b66 dbbd
00000310: 0958 9f3d b295 d5bb 4046 51bd 0f9b 033d
00000320: 7bbd 80bc 545a 5cbc 3fab bcbc d3f8 ccbd
00000330: 5eda 6a3c 3d46 e93d 08ce fa3b 12c7 503c
00000340: 758b 683c 9db3 943c 88bd b43b 43b0 0cbe
00000350: 657f b8bd b264 dabd d19a 033b 8d7d 6f3d
00000360: dcd9 163d 1872 9fbd 15b6 863b 4d1d 383c
00000370: a109 b33e 4ae1 b4bd 6d05 333c cffe 6fbd
00000380: 06f2 d03d 38af 4abd e1b3 06bd 8fc4 873d
00000390: 64b3 fe3c 5344 88bd aad0 6c3d f07d 883e
000003a0: 5c26 c23c e7ec 113e a3b4 bc3b fd5c a73c
000003b0: 786c 31bd 8eb1 d23c ec81 47bd a132 1b3d
000003c0: eb70 2d3b f6a2 493d 1590 9e3d 5096 ebbd
000003d0: 9039 b8be b760 a33d 5153 95be 31aa 643c
000003e0: 7b3a 3c3e 9682 0abd 1b89 3b3e 4ea6 883e
000003f0: da8b c5bd 8e5d a33e 82fd 0abd aba8 9d3d
0.010328096 0.025959762 0.054198705 0.079886526 -0.09356949 0.040284213 -0.034627058 -0.029491782
0.033955086 -0.031136915 0.03347309 0.09089117 0.012825261 -0.13890132 -0.02551364 -0.055412456
0.01676799 -0.026132893 0.0062381164 0.14390843 0.11231328 0.08415837 -0.02986754 -0.0414212
-0.029684765 0.07927854 -0.020002317 -0.016171915 -0.34685713 0.122118935 0.03012455 0.054482114
-0.08598525 0.022106942 -0.016453283 -0.060559407 -0.052538976 0.054676164 -0.06802992 -0.21122159
-0.033946604 -0.111133166 -0.030623835 -0.003323629 0.010256581 0.005876222 0.00440371 -0.053282026
0.0042086015 -0.0063659046 0.041997965 0.07294252 -0.16112645 0.049024235 -0.007159294 -0.022159843
-0.0034244189 0.01837783 0.06367345 0.089240864 -0.012607458 -0.117933586 -0.019375322 -0.060047492
0.008197232 0.009497084 0.048186146 0.1367123 0.1356985 0.09966608 -0.02238321 -0.06352914
-0.046804726 0.03890738 -0.012403797 0.015539849 -0.32386175 0.08214298 0.007855762 0.044789188
-0.07971899 0.075095475 0.018254483 -0.068949506 -0.06406797 0.0780497 -0.06181526 -0.17167363
-0.0113952765 -0.062050886 -0.06458585 0.021146907 0.055592984 0.027774055 -0.013554216 -0.062144108
0.0004896207 0.05907686 0.06854891 0.106732994 -0.04974444 0.02024732 -0.011904788 0.004460302
-0.00022548632 -0.04041071 0.015600329 0.09047736 -0.009126672 -0.14037837 -0.02311136 -0.044375744
-0.010301318 0.014768714 -0.015235884 0.123306446 0.14992675 0.092680715 -0.0054847505 -0.077619724
-0.057770588 0.08939929 -0.0033552854 0.0004324789 -0.34796262 0.052502938 0.04643362 0.05810255
-0.055368174 0.07903806 -0.012333259 -0.078680255 -0.074771605 0.0804175 -0.08744527 -0.23106706
-0.061367847 -0.09600376 -0.06470271 0.015656555 0.03291132 0.010290597 0.053895995 -0.050553884
-0.007652414 0.03583411 -0.029604895 0.12750147 -0.016493633 -0.014516033 0.053175543 -0.04556206
-0.0027422553 0.020090302 -0.052058686 0.024403583 0.003673021 -0.12857778 0.005167316 -0.04954903
-0.02539388 -0.02812021 -0.02065092 0.10164652 0.03855789 0.11732703 0.031596035 -0.07319876
-0.034653313 0.09251834 0.040925838 -0.04503178 -0.3747419 0.050702088 0.00049091916 0.026371876
-0.06132408 0.070783116 -0.06101695 -0.026348691 0.062188633 0.07138904 -0.031414907 -0.3979508
-0.03586506 -0.1506262 0.07884455 -0.034444563 0.109828815 -0.13620906 0.13315113 0.013849012
-0.03149754 -0.03957675 -0.052897573 -0.10712906 0.07780463 -0.006518089 -0.051092386 0.032130297
-0.015715351 -0.01344927 -0.023030875 -0.10008397 0.014334289 0.1139035 0.0076539554 0.012742775
0.014193405 0.018152053 0.005515758 -0.13739114 -0.090086736 -0.10663737 0.0020081291 0.058469344
0.03682886 -0.077854335 0.0041110613 0.011237455 0.34968284 -0.08832033 0.010926587 -0.058592614
0.10202412 -0.049483508 -0.03288639 0.066292875 0.0310914 -0.06653657 0.057816185 0.26658583
0.023699932 0.14250527 0.0057588383 0.020430082 -0.043316334 0.02571943 -0.048707888 0.03789008
0.002646501 0.049227677 0.07742325 -0.11503279 -0.35981417 0.07977431 -0.29165128 0.013956592
0.18381684 -0.033815943 0.1831402 0.2668938 -0.09645815 0.31907314 -0.03393317 0.076981865
